face_classifier_2_Visual.pth (torch, 661298 bytes, 6 tensors)

fc1.weight f4 [256, 512]
00000000: b24e 14bd 7ba9 4e3d 3aae ee3c 4cf0 d1bb
00000010: f30e 513d f66c af3c a712 23bc e324 923d
00000020: e1aa 03bd 1792 9c3c aa42 fdbc 2e31 ae3c
00000030: d6f5 c33c 98da 9bbd 7662 b0bc d1d5 92bc
00000040: c6e7 e73c 9b2b 643c 623d c33b 4926 74bd
00000050: 6e3d febc 5aab 2ebd eb07 403c bee4 543c
00000060: 5440 963b 7027 e03b 9a09 1f3d cb04 23bd
00000070: b23d 94bb 327c 453d a9ea 4b3d 886d 7e3c
00000080: 104a 0f3a 5fbc 73bd 14e6 95bb 68a0 383c
00000090: 86dc 3f3d e276 573b 9fc6 2cbd 2ed1 433b
000000a0: 1c66 2bbd aa72 c83b b229 d6bc 5aff b63a
000000b0: fc0a b43c 72a9 e53b 9a4b 47bd 46d5 a53c
000000c0: 7d71 4f3c f3f5 79bd 84bb d13b 2acf 673c
000000d0: baae 693b 71e4 983d 0f68 80bd fb6e 1bbc
000000e0: 0222 0fbb 6956 843c a7d5 73bd 2065 09bd
000000f0: 344c 3bbc e8cf 3ebd 18f0 103d e578 4abd
00000100: 80cc 06bd 3bad cfbb d31a 453c d809 783d
00000110: d4af 263d 265a 763d 7c1a 76bb ca87 7ebd
00000120: a40b 79bd 7cb7 1dbd 80db 11bd 6fb9 6c3d
00000130: 2ffd 84bd b861 e539 a256 0cbd ade6 103d
00000140: 4d65 b8bb df6a 443d a441 993d 45f3 013c
00000150: 64f0 5bbb 1ef0 233d 8e6c 013a 9a34 d6ba
00000160: b2a0 d33c 4b43 92bd 7dd5 05bc 67f7 36bd
00000170: ac57 5d3a b5fb c93c 4ab7 6b3d 87be 013d
00000180: 8617 553b 22b0 0bbd fd85 72bc 961c 593d
00000190: ce3a 93bd 8b68 dabc b700 26bd 241a 81bd
000001a0: 9e96 eb3c 16be 2b3d 3aaa 35bd 0af8 043c
000001b0: b8d2 1a3d 2033 54bc dda0 e53c ea0e 2d3c
000001c0: 5756 4ebd 3c96 50bd cf09 843d ff16 8b3d
000001d0: 573f 8b3d 8dcc 2cbc 03ab 643d 7d8c 05bd
000001e0: 50ac f2bc c8d7 14bd e9e6 7dba a5d3 ea3c
000001f0: 007c 65b9 0533 91bc 81e2 61bc 75dd 863c
00000200: 8acf 59bd 0af6 70bd 3e3b 83bd d3aa 7f3c
00000210: e1ff 2f3d c018 27bd 86ed 9a3d ce0e bf3c
00000220: 3a5b 863a 2b04 eaba 2a30 3a3b 74e5 88bd
00000230: 87e9 5dbd 8843 96bb 2030 053a 2268 f2b9
00000240: d689 73bc ffde 79bc 367e 013c 6841 52bd
00000250: c6c0 213c 7f29 583d e62f 88bc c3fc 21bc
00000260: 82ba 7dbb c1e6 49bc 2a84 3c3d 08ba a939
00000270: adb5 2ebc e929 8dbc 9654 403d 8b27 7cbc
00000280: c1d9 62bc 93b2 913d adfa ad3b 1c5a e1bc
00000290: 448c 84bd 8cd0 f83c 2a50 80bc a3f7 7e3c
000002a0: 63e7 873d 7f5b 2ebc 9e05 b33b 69b9 70bd
000002b0: 39bf 9bbd cec3 083d 06fa 1dbc 348d 923d
000002c0: 241a b2bc 7026 55bd ef5c ce3b eae7 18bc
000002d0: 1f26 44bc a3a4 c73a bcc6 4a3d fe47 813d
000002e0: 54fc a93c de4a 10bc 1fd1 493c 6856 91bc
000002f0: ce48 663d 06bd bdbc 4b76 5abd e98b 34bd
00000300: a569 95bd ce3c 4e3b 2b59 df3b 3830 98bd
00000310: a030 573d 8a1f 93bd 02fd 153d 5662 563d
00000320: cdf5 363d 3a0e 38bd 407e 0fbc e644 15bd
00000330: 9305 92bc 0a30 8f3a 4f58 f9bb fdb0 7fbd
00000340: 905a 8dbc 4a34 ecbc 3438 adbc 52f9 8fbb
00000350: cb99 3b3d dd41 aebc 9ff0 d0bc d28d 173d
00000360: af4d e53c 97b0 9b3d ca52 833b 2f69 c6bc
00000370: ed16 28bd 9718 183c 5eac ea3c a8ec 53bb
00000380: 89b6 a23c 16c5 30bd 44a3 3abd a246 c8bb
00000390: e19b cebc d823 2cbd 3387 8abc 5f53 cb3c
000003a0: a9d9 813d be45 3e3d 0c6d 9a3c 1e60 9d3c
000003b0: 9c71 e03c d5f9 893c 4443 f5bb f1fc eb3c
000003c0: 9e28 783d ce62 75bc ee96 0dbb 2e00 76bc
000003d0: 2638 ec3a a800 7cbd 314c 623d b1a1 3dbd
000003e0: 07ac 173d fc0e 8e3b b49c edbb b2c0 243b
000003f0: 50bc 64bb c451 73bb 0e18 8e3d 0b00 f3bb
-0.036207862 0.050454598 0.029135812 -0.0064068194 0.051039647 0.021414261 -0.0099531775 0.07135942
-0.032145385 0.01911263 -0.030915577 0.021263685 0.023920935 -0.07610053 -0.021531325 -0.017924221
0.02830876 0.013926412 0.005958245 -0.059606824 -0.031035151 -0.042643882 0.011720638 0.0129939895
0.004585305 0.006840639 0.038827516 -0.039799493 -0.004523956 0.048214145 0.049784336 0.015529044
0.0005466053 -0.059505817 -0.0045745466 0.011268713 0.046841167 0.0032877256 -0.042181607 0.002987932
-0.041845426 0.0061171846 -0.026142929 0.0013961599 0.021977894 0.007008725 -0.048656084 0.020243298
0.012661335 -0.06102557 0.0064005274 0.014148513 0.0035657124 0.07465447 -0.062698476 -0.009486909
-0.0021840339 0.016154485 -0.059529927 -0.033543706 -0.011431742 -0.046584994 0.03538522 -0.0494317
-0.03290987 -0.0063377894 0.012030321 0.060556263 0.040695027 0.060144566 -0.0037552407 -0.062141217
-0.060802117 -0.038505062 -0.035609722 0.05779403 -0.064936034 0.0004375109 -0.034262307 0.03537624
-0.0056273104 0.047953483 0.07483223 0.007931535 -0.0033560032 0.040023915 0.00049371354 -0.0016342581
0.025833461 -0.07141741 -0.008168575 -0.044669535 0.0008443545 0.024656156 0.057547845 0.03167584
0.0032515242 -0.03410352 -0.014802453 0.053005777 -0.071889505 -0.026661178 -0.040528025 -0.06303814
0.028758343 0.041929327 -0.044351794 0.008115778 0.037798613 -0.012951642 0.028030807 0.010562638
-0.05037531 -0.050924525 0.06447183 0.067914955 0.067991905 -0.010546816 0.055827152 -0.032604683
-0.02962318 -0.036338598 -0.00096855924 0.028665373 -0.00021885335 -0.017724523 -0.013786913 0.01646302
-0.05317644 -0.05882839 -0.06407784 0.0156046925 0.042968635 -0.040795088 0.07564835 0.02332249
0.0010250576 -0.0017854025 0.0028410056 -0.0668439 -0.054177787 -0.004585687 0.00050807185 -0.00046235422
-0.014864406 -0.01525092 0.007903626 -0.051331908 0.009872621 0.05277395 -0.016624402 -0.009886923
-0.0038715904 -0.012323082 0.04602448 0.00032372796 -0.010663432 -0.017231898 0.046955667 -0.015390287
-0.013845862 0.071141385 0.005309424 -0.027508788 -0.06472066 0.03037288 -0.015663225 0.015561971
0.066359304 -0.010641932 0.005463316 -0.05877057 -0.07604832 0.03338986 -0.00964213 0.071558386
-0.02174098 -0.05203861 0.0062976996 -0.009332636 -0.011971979 0.0015231561 0.049505934 0.063125595
0.020750202 -0.008806912 0.012317925 -0.017741397 0.056221776 -0.023161422 -0.05333547 -0.04407874
-0.07295541 0.0031469348 0.0068160496 -0.07431072 0.052536607 -0.0718375 0.03661824 0.052339874
0.044668008 -0.044935443 -0.008758128 -0.03644266 -0.017824924 0.0010924351 -0.007609404 -0.06242465
-0.017255098 -0.028833527 -0.021144964 -0.004393735 0.045800965 -0.02127164 -0.025505362 0.037000485
0.027991144 0.07602041 0.004007672 -0.024220077 -0.04103749 0.009283206 0.028646644 -0.0032337103
0.01986243 -0.043156706 -0.04556586 -0.0061119357 -0.025220813 -0.04202637 -0.016910171 0.024820028
0.063403435 0.04645323 0.018850826 0.019210871 0.027397923 0.016842762 -0.0074848253 0.028807135
0.06058561 -0.01497717 -0.0021604854 -0.015014691 0.0018022105 -0.061524063 0.055248443 -0.04629678
0.037029292 0.0043352824 -0.0072513465 0.002513927 -0.0034902282 -0.0037127594 0.06938182 -0.0074157766

fc1.bias f4 [256]
00000000: f6b4 843b f348 763d b697 243d 179d 893a
00000010: e76c 443d e43c f43c 71e8 023d a9a9 0b3b
00000020: 7b88 263d 0e02 6f3c 7971 493d c3c1 2abd
00000030: da85 193c 5e5d 523d a861 803d 105c 613d
00000040: fa79 653d 62bd 1abd 4884 963c ff43 363c
00000050: 426a 883a 3f7d aa3c 5e36 5d3d 48b9 433d
00000060: 5c12 d43c 2ad9 833c f91f b3bc 5235 1f3d
00000070: 1419 34bd 2640 783d 1317 f93c 0f95 923c
00000080: 5a46 833d 7d00 5b3d 854b 303c 158f 533d
00000090: cb7e 753d 39bd 16bc 757e 7b3c 265f 5b3c
000000a0: 00a6 623d 1810 6a3d 3695 3d3d 9719 c53c
000000b0: fda6 09bc b45a 073d 29d5 df3c 2d13 ff3c
000000c0: fe0f 3ebd a5f2 743c 454e 143c dac4 523c
000000d0: 261b e83c 6b92 3dbd a9ec bd3c 4e87 4ebd
000000e0: 803d 583c b2df 94bc a541 ce3c 60ea 023c
000000f0: de45 19bb 9a76 cabc 2575 7e3d e661 ee3a
00000100: 1d73 213d 1926 34bc 5182 853c 404b b83c
00000110: 907f 5a3d 22c1 663d c475 253d 6be6 1e3d
00000120: 9412 893c 44f1 e33c 0a07 763d acc4 7fbb
00000130: 24d2 8f3d abe5 833d f949 bf3c 4ec9 e63c
00000140: 7bb0 0dbd 521e 123d 1522 11bc b4d7 70bc
00000150: aaba 373d ce39 ac3c ef2b 4c3d 8da9 a1bc
00000160: ebec 4c3d 4317 5d3d 5a71 2b3d c297 9f3c
00000170: fa46 50bb 892f 54bb 49dd 0b3d da2e 6c3c
00000180: fe73 ec3c 94c3 c83c 1ef8 1abd 9626 ac3c
00000190: 2291 0abd 8036 6e3b 88aa 46bd 52cc d43c
000001a0: 287d 2e3d 1e99 493d 8a1c 163d 9ba9 973c
000001b0: 971d 0f3d 0ab7 9d3a 5fdc 6a3d 8e45 0ebc
000001c0: e9ff 103c 748d 2b3d b257 c23c dadd 363d
000001d0: 65ab 153d f05a 90bb 0dc7 3fbc 0da3 da3c
000001e0: 5377 123d 5055 403a 15cf 853b 6efe 8b3d
000001f0: d7e5 3f3c 67b4 97bb 40f0 4b3d eaac b4bb
00000200: 6130 643d 14f2 0f3d 1df5 08bc 518b ca3c
00000210: 62a7 2d3b 6657 16bb 87c6 35bd 315f 183d
00000220: 0138 1b3d be70 713d 7b40 913c 0c82 113d
00000230: c7df b33c dbc4 d7bb feed 5d3d ffd1 063c
00000240: dcdb a0bc 6f27 1a3d 6e24 203c fefb 383d
00000250: bf41 1e3c 1658 353d 77e0 febc 8781 6e3c
00000260: d640 cd3c a803 61bc ed6b 23bc 20e1 d03c
00000270: e263 103c 0699 3dbb c003 503d e258 f53c
00000280: 340a 02bc 2ce6 3d3c 8ac0 353d f950 463c
00000290: 1db5 103c 8a64 c83c d1fe e73c ec1e 893c
000002a0: 67fe 653d 6fdc 7d3d 6112 383d a9de b1bb
000002b0: 9e6f 543d bda7 b9bc 2a96 fe3c dcc4 5cbc
000002c0: c26f 1c3d 83fd 833b 8b6f ba3c 0aa5 4c3d
000002d0: 0061 6bbc 03f8 4a3d c5c0 e53c 954d f03c
000002e0: 9de4 f13c f36b f13c 5144 983c d003 863d
000002f0: 7cbd 793d 88a5 8a3d 88e9 7abc 920c 0f3d
00000300: 494d 34bd cf84 653c a302 be3c 3fc7 83bb
00000310: cac9 223c 7354 c1bc bf22 3a3b 335c 6f3d
00000320: 5dc0 4c3d 1c5b 10bd 004d 7d3d 9ef0 3f3c
00000330: cd35 1a3d 469b 6e3d fa58 0f3d 39fe 00bd
00000340: 3e80 51bb ca4d cd3c 0ade 88bb 7732 87bc
00000350: 8125 863d 57fe 623d de70 023d d0a9 25bd
00000360: 04c0 443d 67eb a7bb 8c4d 29bd cb9e 5ebb
00000370: f4e3 543c 2c75 613d d1fe 5b3d fe21 803d
00000380: 70bb 073d de07 0f3d c541 8e3c 7b6a 583d
00000390: 535d bebc 5f58 f03c eb64 9abc cacf 903d
000003a0: adf1 083d ba80 433d 2328 153c c4f3 633c
000003b0: c03a 06bc f47e d6b8 6a9c 78bb 8c82 73bb
000003c0: a61f 913d 389a 3c3c 3542 483d 77f1 0e3c
000003d0: 9959 463d 3654 0d3b ab9d 7c3d 784f a9bb
000003e0: 7af8 af3c ed86 0c3d ff76 0bbd 7151 8a3c
000003f0: 1917 a53c f478 af3c ea4b 6a3c 90b2 4e3d
0.0040498925 0.060128164 0.040183745 0.0010499087 0.04795542 0.029814191 0.031959955 0.0021310842
0.0406575 0.014587892 0.04918048 -0.04168869 0.009370292 0.051358573 0.062686265 0.05501944
0.05602453 -0.037778266 0.018373623 0.01112461 0.0010407644 0.020811675 0.054006927 0.04778412
0.02588766 0.016094763 -0.021865832 0.03886921 -0.04396923 0.06060805 0.03040651 0.017893342
0.06409903 0.053467263 0.010760193 0.051650126 0.059935372 -0.009200388 0.015349974 0.013389384
0.05533409 0.057144254 0.046284877 0.024060054 -0.0084016295 0.033045486 0.027323322 0.031137073
-0.04640197 0.014950429 0.009051864 0.012864316 0.028333258 -0.046282213 0.023184137 -0.050422005
0.0131982565 -0.018173072 0.025177786 0.00799045 -0.0023387591 -0.024714757 0.062123436 0.0018187135
0.03941642 -0.010995411 0.016297491 0.02249682 0.05334431 0.05633653 0.040395513 0.038793962
0.016732492 0.027825005 0.060065307 -0.0039027138 0.07022503 0.0644029 0.023350703 0.028172161
-0.034592133 0.035673447 -0.008858223 -0.014699865 0.04485575 0.021023657 0.049846586 -0.019734168
0.05003063 0.053977262 0.041856147 0.019481543 -0.0031780587 -0.0032376966 0.03414658 0.014415467
0.028863903 0.024507321 -0.03783428 0.021014493 -0.033829816 0.0036348403 -0.048502475 0.025976334
0.042599827 0.04921829 0.03664831 0.018513491 0.03494033 0.0012032699 0.05733907 -0.008683575
0.008850076 0.041882947 0.023723457 0.044645168 0.036540408 -0.004405372 -0.011705172 0.026689077
0.035758328 0.00073369313 0.004083524 0.06835638 0.011712513 -0.00462966 0.049789667 -0.005513777
0.0557102 0.035142973 -0.008359221 0.024724634 0.0026497473 -0.0022940277 -0.044378784 0.037200157
0.037895206 0.05894541 0.017730942 0.035524413 0.021957291 -0.0065847463 0.054182045 0.008228778
-0.019636087 0.037635263 0.0097743105 0.045162193 0.00965923 0.04427346 -0.031112893 0.014557249
0.02505533 -0.013733782 -0.009974462 0.025497973 0.008812876 -0.002893032 0.050784826 0.02994961
-0.007937003 0.011590522 0.044373073 0.012104266 0.008832243 0.024462003 0.028319748 0.016738378
0.05615082 0.0619778 0.044939402 -0.0054281545 0.05186426 -0.022662992 0.031077463 -0.013474669
0.038192518 0.0040280237 0.022758266 0.04996208 -0.014366388 0.04955293 0.028046021 0.029333869
0.029527957 0.02947042 0.018587263 0.06543696 0.060971722 0.06769854 -0.015314467 0.034924097
-0.044019017 0.014008715 0.023194617 -0.0040215547 0.009935806 -0.023599839 0.0028402058 0.058437537
0.04998814 -0.03524314 0.06184101 0.011715082 0.037648965 0.05825355 0.034996964 -0.031492446
-0.0031967307 0.025061507 -0.0041768597 -0.016503556 0.06550122 0.05541834 0.03184592 -0.04044515
0.048034683 -0.0051244977 -0.04133372 -0.003396916 0.012993801 0.055043384 0.05370981 0.062564835
0.03313774 0.034919612 0.017365346 0.052835923 -0.02323786 0.029339014 -0.01884695 0.070708826
0.033433605 0.047730185 0.009103808 0.013913099 -0.008192718 -0.00010227962 -0.0037935027 -0.003715667
0.070861146 0.011511378 0.048891265 0.008724562 0.04842529 0.0021565086 0.0616738 -0.005166944
0.021480788 0.034308363 -0.03404903 0.016884537 0.020152615 0.02141998 0.014300326 0.05046326

fc2.weight f4 [128, 256]
00000000: 3bab 6abd ded1 adbc d242 1abd e7c2 2b3c
00000010: 8e5a 0cbd b178 febc 7616 373d 88ce 1b3d
00000020: 04fb d33b 731a 73bc 6342 2fbd a07c 73bc
00000030: 01d8 58bd 7499 353b c161 8bbd 9675 af3a
00000040: 6dec 5d3c 0895 a53c 1e1d aabb 4698 c8bc
00000050: 34d6 37bc b26b e63b fcfa 50bd 8573 5dbd
00000060: 059e 52bd 6611 d13c b453 553d adb3 273d
00000070: f42e ef3c ed96 ef3c 5db1 7dbc 7854 4b3d
00000080: a762 f7bc 5a79 4abc 6695 94bd 1a78 4c3d
00000090: ae27 2cbd c2e5 23bd 9685 f7bc 86a8 03bd
000000a0: 2121 273d 6238 e5bc 3e46 3fbd 0e1c fe3c
000000b0: ebb1 b1bb d24d ffbc a384 4ebd 4cc6 02bd
000000c0: 6046 de3b 8119 223d 0d65 87bd d44c cd3c
000000d0: 885b 493d f4cb 4f3c dabe 61bd 728e 673d
000000e0: 31df 0cbc bb84 dc3b 3ed7 0cbd 8601 2e3d
000000f0: b722 80ba 1260 49bc 3faa aa3c c83f 70bd
00000100: d5d4 1bbd cfcf 1e3d 82c8 5fbc e748 48bd
00000110: 69e1 4f3c ce4c 1ebd ca9a 2cbd 5dae 3a3d
00000120: 532b 91bc 4aa2 4b3d 9213 d13c 8451 feba
00000130: 6430 1dbd 95aa 50bd d9ae 223d cd1b 423d
00000140: 339c 43bd 01cf 9c3c 6c1a a13a adae 223d
00000150: 138b 7bbd f00f 353d 3bed f23b 95b7 08bc
00000160: 1028 88bd 7e9e e83c 30e3 21bd c80e 3e3d
00000170: 42e5 c93a a06f 7e3d 3a61 8ebd 4872 07bd
00000180: b80a 493d 24ee 143d 687f 09bc 2e02 48bd
00000190: a8f5 e6bc 2328 cc3c eea5 6dbd e084 85bd
000001a0: 00b9 86bd 96bf 023d 9c38 52bc 6148 f63b
000001b0: d1c6 a0bc 77f3 2fbd d419 f23c b4d9 a43c
000001c0: eed8 c0bc 7881 4dbb 8428 1ebc a299 313d
000001d0: aa67 1e3d 396d 153d 4052 d73a 0024 10b6
000001e0: 1e70 f7bc 7978 6abd 3501 073b 0d5c 04bc
000001f0: 1f2a 5bbd 8a1e cfbb 6666 8a3b 7f68 53bc
00000200: a79d 4abd 366c 4bbd 52eb afbc 1ae9 88bd
00000210: 625a 5d3d 3a3a 42bc 25b1 433c 00e9 193d
00000220: dc11 453c 7d8a 653c 4a25 1ebc 71e0 77bd
00000230: 225f a73c 803b a3bc ed3d 75bd 6744 38bd
00000240: bafd 963c 388b c5bc 9672 d23c 4b5d d53c
00000250: 146c ad3c ab68 81bd 4061 7b3b 9026 bcbb
00000260: df48 c8bc 79f0 8cbd 94cd c1bc d45b afbc
00000270: 9bf9 4f3d 83cd 3c3c 8fdd 3bbd 8be0 5bbd
00000280: be27 6dbd 0e91 bdbc 4b27 c03c 52b3 42bc
00000290: 09b7 d13c bbd2 4939 c669 30bd b848 84bd
000002a0: 9a5e 24bd 9809 0fbd f5c5 563d 8891 163d
000002b0: b165 50bc 7ca1 20bd a1eb 2139 610e 403d
000002c0: 8ec3 74bd a48f 6fbd 5d79 383d 4603 413d
000002d0: 084f 2fbd 0b46 88bd 1416 4a3d 8256 fd3c
000002e0: 8ed0 c6bc 2698 49bd edaa 833c e044 f33b
000002f0: 94b7 3a3d 86ea 233d 4fa2 cabc 3cc1 873c
00000300: b819 083d 7f39 8dbc 260e c4bb d09f 3fbc
00000310: 1090 57bd 0a12 5cbd 5e24 60bd 6d4b 4e3c
00000320: 09aa 013b 001d 313d ce4f 49bd 209f 9c3b
00000330: a9f1 71bd 35b7 fb3c 883d 8bbc 90c0 ff3c
00000340: 5df1 3a3d 8119 7bbd 3b54 7bbb a220 7dbd
00000350: 6605 98bc 55f4 14bd 397c ad3c 96c2 363d
00000360: 8751 243c 7e80 32bd e888 f13c b842 6e3d
00000370: ebc2 f73c 2ff3 823c fcfc 6a3c 1586 fd3c
00000380: 521a 15bd f5df 813c 7822 f9bc e7d5 f93c
00000390: 1b95 2b3d 13ac ae3c 3c72 4dbd 3e91 adbb
000003a0: d932 c8bb 7085 9cbc 23ad 75bd e9f5 5c3d
000003b0: a486 8dbc 51bc 86bd 1041 e03b cca0 41bd
000003c0: 949e 373d d4a3 c83c 9b24 f1bc a508 053c
000003d0: 4f4b e1bc a04f 1ebc 9ea3 ef3b 1387 70bd
000003e0: 4f7b 1dbd 3c51 e4bc 7443 6fbd 0b56 15bd
000003f0: ca84 63bd 5dff 84bc b234 103d 877d 3ebd
-0.057292204 -0.021218237 -0.03766138 0.01048348 -0.034266047 -0.03106341 0.044699155 0.03803876
0.0064691324 -0.014837849 -0.04278792 -0.014861256 -0.052940372 0.0027709873 -0.068057545 0.0013386484
0.013545138 0.020212665 -0.0051914593 -0.024486672 -0.011220504 0.0070318813 -0.051020607 -0.054065246
-0.05142023 0.025520992 0.05208178 0.040942837 0.029197194 0.029246772 -0.015484181 0.049641103
-0.030198408 -0.012358034 -0.07255058 0.049919225 -0.04203003 -0.040014036 -0.030215066 -0.03214314
0.04080308 -0.027980987 -0.046697848 0.031019237 -0.005422821 -0.031165037 -0.05041946 -0.031927392
0.0067832917 0.039575104 -0.06611071 0.025061049 0.049159557 0.012682904 -0.05511365 0.05653233
-0.008598135 0.00672969 -0.03438496 0.04248192 -0.0009775971 -0.012290971 0.020833133 -0.058654577
-0.03804477 0.0387724 -0.013658645 -0.04889765 0.012688019 -0.038647465 -0.042139806 0.045576442
-0.017720854 0.049715318 0.025522027 -0.0019402956 -0.038376227 -0.05094393 0.03971753 0.047389794
-0.047756385 0.019141676 0.00122912 0.039717365 -0.06141193 0.044204652 0.007413534 -0.008344551
-0.06648266 0.028395887 -0.039523304 0.046400815 0.0015403407 0.062118173 -0.06952138 -0.03306797
0.049082488 0.03635992 -0.008392192 -0.048830204 -0.02819331 0.024921482 -0.05801957 -0.065194845
-0.06578255 0.03192099 -0.01283088 0.0075159525 -0.019626053 -0.042956796 0.029553331 0.02012334
-0.02354094 -0.0031357687 -0.009653214 0.043359406 0.03867308 0.036481116 0.0016427711 -2.1478627e-06
-0.030204829 -0.057243798 0.0020600085 -0.008078587 -0.053506967 -0.006320779 0.0042236326 -0.012903332
-0.049466755 -0.049663745 -0.021474514 -0.066850856 0.054041274 -0.011854703 0.01194409 0.03757572
0.012028184 0.014010069 -0.009652445 -0.06051678 0.020431105 -0.019925833 -0.05987351 -0.04498711
0.018431533 -0.024114236 0.025689404 0.026045462 0.0211697 -0.06318792 0.0038357526 -0.0057419017
-0.02444881 -0.06881804 -0.023657598 -0.021406092 0.05077515 0.011523607 -0.04586559 -0.053680938
-0.05789923 -0.023140457 0.023456236 -0.011883574 0.025599973 0.00019247357 -0.043069623 -0.064591825
-0.04012928 -0.03492126 0.05243488 0.036759883 -0.012719558 -0.039216504 0.00015441935 0.046888713
-0.059756808 -0.058486596 0.045037616 0.047122262 -0.04279998 -0.06653985 0.04933746 0.03092504
-0.024269368 -0.049217366 0.016072715 0.007423982 0.04558523 0.04001858 -0.024735598 0.016571634
0.033227652 -0.01723933 -0.005983132 -0.011695817 -0.052627623 -0.05372814 -0.054722182 0.012591225
0.0019785187 0.043240547 -0.049148373 0.0047797114 -0.059068356 0.030727008 -0.016997114 0.03121975
0.04564034 -0.06130362 -0.0038349766 -0.0617987 -0.018557262 -0.036365826 0.021177398 0.044619165
0.010029203 -0.04357957 0.029484227 0.058169097 0.030244311 0.0159851 0.014342543 0.030947724
-0.036402054 0.015853861 -0.030411944 0.030497504 0.041890245 0.021322286 -0.05015777 -0.0052968552
-0.006109577 -0.019106597 -0.05997957 0.053945456 -0.017276116 -0.06578887 0.0068436936 -0.04727249
0.044828966 0.024492182 -0.0294364 0.008119737 -0.02750173 -0.009662539 0.007313206 -0.058722567
-0.038447674 -0.027870767 -0.058413938 -0.03645901 -0.05554656 -0.016235048 0.035206504 -0.04650643

fc2.bias f4 [128]
00000000: 6e16 08bd f00b 60bd 740d cc3b ff23 91bb
00000010: d6f1 653d 8ae9 2f3d bff0 913d 9c2f c73b
00000020: c1a6 963d 42dc 943d d941 223d 889c 213d
00000030: 620b 0ebd 51c9 a93c 60d2 813d 48e4 dfbc
00000040: c5e7 08bd 9710 2b3d af81 a03d bb2b 763d
00000050: 3314 8f3d 00ab 34bd ab8a 1b3d 12a0 523d
00000060: f426 3a3d 4162 6cbd 5ef6 2b3d d95d 933d
00000070: ed71 15bd 3eb2 22bd 89d2 d2bc 5380 33bd
00000080: 5102 a63d 2524 5c3d cfbd adbb 9d40 1f3d
00000090: da21 183d a3d4 abbc 8268 a03d 95f1 703d
000000a0: 9b53 2a3d ce6a 70bc 28a6 45bd 4685 ab3d
000000b0: a5d0 1b3d ca96 763d 0a38 e93c e410 b43d
000000c0: 4667 a7bc ddb5 633d 6433 38bd 2986 2abd
000000d0: 3056 99bc d807 50bd 350f cc3c 2b22 6b3b
000000e0: 8c1e a63c 9807 1a3d 7c91 803d 5557 683d
000000f0: c686 783d 7f8b a0bc c68d fe3c d535 0e3d
00000100: e2ed 31bc 80fb c23c b753 edbc 50cf acbb
00000110: e787 65bd 1e04 303d aed4 a23d 012e 333c
00000120: f023 72bb 3d5d 343c bc53 833d 8ab8 7a3c
00000130: a100 58bc 0ded 59bb 4c19 293c 0c9a 7e3d
00000140: 9539 ce3c 281a 76bd de4a 56bd c6e4 b43c
00000150: 1695 9b3d 219e 6fbb 64aa 5bbd e1dc 1dbd
00000160: 5ad7 593c f136 2dbd b522 15bd 7d15 d2bc
00000170: 160e 78bd d94d 91bc bfdb 583d d7c7 40bd
00000180: 8c7b f2bc 6ff7 91bc 4b5e 373d 36ac 7f3c
00000190: c69e 1f3c 0946 cabc 996d f73c eb60 243d
000001a0: ca2f 8bbc 868d 9f3d 409a 10ba 7856 35bd
000001b0: 965f 6a3d cd50 32bd 244d e83c 24fa 673c
000001c0: c483 07bd a2d5 a0bc 9f7f 993c 099f 23bd
000001d0: 4cfc 58bd 91ca 2a3d 7c45 983d ae12 f03a
000001e0: 6a40 843d 2ec1 953d bac7 6f3d 9ae9 75bc
000001f0: 09ff 11bd 9538 5ebd a3be af3c bbf2 6a3d
-0.033224516 -0.054698884 0.0062271897 -0.00442934 0.056138836 0.04294733 0.07125997 0.0060786735
0.073560245 0.07268573 0.03961358 0.03945592 -0.034678824 0.020725878 0.06338954 -0.027330533
-0.033424158 0.04176387 0.07837235 0.0601003 0.069862746 -0.04410839 0.03797404 0.051422186
0.045447305 -0.05771089 0.041983 0.071956344 -0.0364856 -0.039720766 -0.025735157 -0.04382355
0.081059106 0.053745408 -0.005302168 0.03887998 0.03714166 -0.020975417 0.07832433 0.05882414
0.04158364 -0.014673902 -0.048254162 0.08375029 0.038040776 0.060202397 0.028469104 0.08792284
-0.020434987 0.05559336 -0.044970885 -0.04163185 -0.018717855 -0.05078873 0.024909595 0.003587852
0.020278238 0.0376049 0.06277749 0.05672391 0.060675405 -0.019597767 0.031073462 0.034719307
-0.010859938 0.023801565 -0.028970582 -0.005273737 -0.05603781 0.042972676 0.07950722 0.010936261
-0.003694769 0.011008558 0.064124554 0.015302787 -0.013183744 -0.0033252866 0.010320973 0.06215863
0.025173942 -0.06008354 -0.052317493 0.022081744 0.07596795 -0.0036562758 -0.053629294 -0.038540725
0.013295973 -0.042288724 -0.036410052 -0.025645012 -0.06056031 -0.017737316 0.05294394 -0.047065582
-0.029599927 -0.01781818 0.04476766 0.015605023 0.009742444 -0.024691598 0.030203627 0.04013149
-0.016990561 0.07790665 -0.0005516149 -0.044271916 0.057220064 -0.04353409 0.028357096 0.014158759
-0.033084646 -0.019633118 0.018737612 -0.03994659 -0.052974984 0.04169709 0.07435128 0.0018316114
0.064575985 0.07312237 0.058540083 -0.015009308 -0.03564361 -0.05425318 0.021453207 0.057360392

fc3.weight f4 [3, 128]
00000000: ca9c 4abd 3f96 21bd 106e e1bd 0982 bc3d
00000010: 7427 b23d 4dd9 0f3d 30eb 0dbd 8697 dabd
00000020: 6352 ef3c 245b ebbd b6be e83d 07a4 eebd
00000030: 1086 b8bd cf90 a7bb 51d8 b63d cddd af3d
00000040: 7727 92bd 3363 e93d a7e7 2fbd 9e95 683b
00000050: d83b f03d 94e7 0bbd e15d 1cbc 83d9 86bd
00000060: 3383 9abd 6b92 1abd d262 c13d ab6e 963c
00000070: 499e 953d a0ae 48bd 0aa3 903d f5be 87bc
00000080: 39cd 833d 6ad3 bdbd 032b b1bc 1055 cdbd
00000090: d8f3 86bd 85bc daba 43fc f1bc 5d4f d5bd
000000a0: 7f23 d4bd a8ad 01bd 0e9e 91bd 995c ac3d
000000b0: fc6a 2abd f061 523c 1598 7f3d c2f7 b03d
000000c0: 8ae9 a73d 0c79 a0bd 776a 743c 85ad 693b
000000d0: 90da 3c3c 8ca6 80bd aada c03d 5119 50bd
000000e0: c0fe d2bd 94c6 b6bd 3602 c83d 9da7 8fbd
000000f0: b6ba 453d c183 c9bd 613d a73d e3b7 94bd
00000100: 8730 8a3d d5dd a03d 1637 50bd 204c 6dbb
00000110: 27ce 973d 45d5 09bd 0380 ec3d c1bc 6d3d
00000120: c462 98bd 88cb 83bd e46c 8dbd fd9b edbd
00000130: 6a43 84bb f5f7 5b3d f47b 503d 1169 e03d
00000140: 7ed0 c4bd c6ad 293d f6f1 cd3b eabf e73d
00000150: 55cf f13d f575 a2bd 573b 68bd 3be1 6bbc
00000160: 3cba c1bd b95f cb3d d88b 8fbd fab2 ab3d
00000170: 4858 fd3c 3734 43bd 9352 bebd 336f d1bc
00000180: 3018 e6bc bab2 dfbd f288 913b 50b4 cb3b
00000190: 1b70 d23d 5a86 76bd 37c8 19bd f3bd 02bd
000001a0: d127 18bd 8b11 59bd e088 c03d 7c9e 98bd
000001b0: 2fc6 56bd 63f7 9f3d 1a94 e43d 55f0 d13d
000001c0: c0b1 5dbd 64df 263c c84e 8c3c a138 9dbd
000001d0: fe62 613d 5220 c8bd c52c 2dbc 7d9a ed3d
000001e0: 0b14 a53c fc84 c9bd dcbe c23d 81e2 f73b
000001f0: addf 633d a23d 643b 00ce f1bd 7318 c33d
00000200: 5cc4 6a3d adfb 963d 666a b93d 108f 62bb
00000210: 905b 9ebd 8225 473d c6b1 4cbd 6d27 f03c
00000220: bc7f 50bd 6498 1a3d eca6 ab3b 09d6 663d
00000230: b48d 823d 6b7f 733d c70c 29bd 02c3 253d
00000240: 4ac2 3f3c 270c 49bc 1dc4 b3bd 46a8 efbd
00000250: c9ae 51bd c1e4 023d b685 ccbd 9d31 953d
00000260: ab00 b63d 594c 06bd 8537 52bd a26e 75bd
00000270: 9e7d 2ebb e5d9 e1bc 6b49 9abd 757f 67bd
00000280: a171 aabd e2ce a9bd fe90 a23d 07e5 d63d
00000290: 3570 bfbd d72a 79bd a5ac acbd a4be ba3c
000002a0: a743 06bd 5ace 6ebc d377 28bd 7224 d7bd
000002b0: ab4e 543d 0f4e aa3c 2b6c bfbd 7ec4 3dbd
000002c0: 9994 08bd 695e d53d 483d 0ebd ec13 703d
000002d0: c545 9cbd ea47 403d 990e fa3c 895a 5f3d
000002e0: e189 0a3d 7c9f 843d f30c 34bd 4ee6 3e3d
000002f0: 5155 07bd 5ca1 10bd 24bf e4bd d31f 093d
00000300: dbb2 cabc 72d8 08bd 2224 923d dafe 10bd
00000310: 7028 4c3d a468 a33d 4c6a a93c 9a0c ecbd
00000320: fe01 88bd 9d1f 8dbd fc8a 8d3d 1f9a ab3d
00000330: 27bc 0c3d 6659 b9bc 454c 06bd 65b9 dabd
00000340: 4917 c4bd 1bba a83d 666d 89bb b74d e4bd
00000350: 13c2 cfbc d414 e23d 02b9 09bd 904c 813d
00000360: cea1 d1bd 5b53 b3bd 0936 923d 8ec4 22bd
00000370: 7abf 93bd d4ba 823d 4a63 93bd dbb5 4fbc
00000380: 6635 e03d d92f 2abd 5283 313c c6df 52bd
00000390: f478 b7bd 5221 783d d9f8 3c3d 95ff 38bd
000003a0: e44b a33c 21dd 71ba f0fd f13d b6b1 793d
000003b0: d5b2 b2bd a38d c33c d85e 38bc 69b4 dcbd
000003c0: ed7b 8d3c c539 aebd 6901 9dbd 2c8e 8bbc
000003d0: 517d 683d 7539 c53b f963 8c3d 9005 06bc
000003e0: 2ce8 b63d 81ba 2d3d 0a97 b0bd e038 2abd
000003f0: d731 b4bd 0e91 ad3c 103f ea3d ed9f 573d
-0.049465932 -0.039449926 -0.11007321 0.0920449 0.08698931 0.035119344 -0.03464812 -0.10673432
0.02921409 -0.11491993 0.113645 -0.116523795 -0.090099454 -0.005113698 0.08927978 0.08587227
-0.071364336 0.11395874 -0.04294553 0.003548957 0.11730164 -0.034156397 -0.009543867 -0.06584456
-0.075445555 -0.03773729 0.094426766 0.018363317 0.07305581 -0.04899466 0.07062347 -0.016570548
0.064356275 -0.0926884 -0.021626955 -0.1002599 -0.06589478 -0.0016688263 -0.029539233 -0.10415528
-0.10358333 -0.031659752 -0.07110225 0.08416099 -0.041605935 0.012840733 0.062400896 0.08641006
0.08198841 -0.07835588 0.014917961 0.0035656404 0.011526719 -0.06281766 0.09416707 -0.050805394
-0.10302496 -0.089245945 0.09766047 -0.070143916 0.048273765 -0.09839583 0.08166004 -0.07261636
0.06747537 0.07854811 -0.050833784 -0.0036208704 0.07412367 -0.033650655 0.11547854 0.058041338
-0.07440713 -0.06435305 -0.06905535 -0.11602018 -0.0040363567 0.053703267 0.05089946 0.1095754
-0.09610079 0.04142549 0.0062849475 0.113159016 0.118071236 -0.07932655 -0.056697216 -0.014396961
-0.094593495 0.09930367 -0.07009095 0.083837464 0.030925885 -0.047657218 -0.092930935 -0.02556572
-0.028087705 -0.10922761 0.004441374 0.0062165633 0.10275289 -0.06018672 -0.037544455 -0.03191943
-0.037147347 -0.052995246 0.09401107 -0.074521035 -0.052435096 0.07810857 0.11161061 0.10250918
-0.054124594 0.010185096 0.01712741 -0.07676817 0.055026047 -0.097717896 -0.010569756 0.11601732
0.020151159 -0.09839818 0.0950906 0.007564843 0.055633236 0.0034826775 -0.118068695 0.09526148
0.05731617 0.07372222 0.09053497 -0.0034570135 -0.07732308 0.048619755 -0.049974225 0.029315675
-0.050903067 0.037742987 0.0052384045 0.056356464 0.06374684 0.059447687 -0.04127195 0.040469177
0.011704037 -0.012270964 -0.0877764 -0.117020175 -0.05119208 0.031956438 -0.09986441 0.072848536
0.08886846 -0.032787655 -0.05132248 -0.05991996 -0.0026625167 -0.02756972 -0.075335346 -0.056518037
-0.08322454 -0.08291413 0.07937811 0.10492902 -0.09347574 -0.06083187 -0.08431367 0.022795983
-0.032779362 -0.014575565 -0.0411299 -0.10504998 0.051832836 0.020789174 -0.09346803 -0.046329968
-0.03334484 0.10418398 -0.03472641 0.05861275 -0.07630495 0.046943583 0.030524539 0.0545297
0.033822898 0.06475732 -0.04395766 0.046606354 -0.03304035 -0.035310134 -0.1116927 0.033477616
-0.024743488 -0.033409543 0.07135798 -0.035399295 0.04984325 0.07978943 0.02068057 -0.11525841
-0.06641005 -0.068907954 0.06911275 0.08379006 0.034359124 -0.022625636 -0.03278758 -0.106798925
-0.09574754 0.08238622 -0.0041939495 -0.111476354 -0.025361096 0.11039129 -0.033623703 0.06313431
-0.1023594 -0.08756133 0.07139213 -0.03973823 -0.07214256 0.06383291 -0.07196672 -0.012677635
0.10947685 -0.041549537 0.010834532 -0.05148294 -0.08958617 0.06057865 0.046135757 -0.045165617
0.019933648 -0.0009226371 0.11816013 0.060960494 -0.08725516 0.023871249 -0.011253081 -0.10776598
0.017271006 -0.085071124 -0.076662846 -0.017035566 0.056760136 0.0060188123 0.06855006 -0.008180037
0.08931002 0.042414192 -0.086225584 -0.041558146 -0.08798569 0.021187332 0.114378095 0.05264275

fc3.bias f4 [3]
00000000: 3470 69bd 20f1 313c 5fc0 513d
-0.05699177 0.010860711 0.05120885
