face_classifier50Epochs.pth (torch, 661388 bytes, 6 tensors)

fc1.weight f4 [256, 512]
00000000: c55b 8c3d d37d 473d 97f9 8f3d 34fd b93b
00000010: cd40 33bd b3fd 603d 313f 20bd 3ea9 1bbc
00000020: 7acb 8bbd beac 7cbb 49bf c6bc f13d af3c
00000030: ec1b 85bc 164f 23bd 6559 4bbd 3ddf 59bd
00000040: 86f7 993d c787 293d 884d f3ba e0a1 42bc
00000050: 3306 993c 0c97 5b3d db71 57bc b544 30bd
00000060: 4c3d 3cbd aab2 c4bc f824 1fbd 4acd 0d3c
00000070: 41cc fcbb c06f 663d ebd8 0e3d 64cd 7dbd
00000080: 69d2 9d3c 8440 13bd 173b 1e3d 5c89 20bb
00000090: b457 e6bc 128b 5d3b d581 013d a053 eaba
000000a0: 7b8c f33c 6892 203d 4c1b 743c fabe 6f3a
000000b0: 9c57 973d d273 8e3c 7f6f 95bb d792 97bd
000000c0: 7f3b b33c c630 a1bd 7e9e 2abd fffd d43c
000000d0: 6d7f 363d cab6 073d 4816 7b3b 7dfd 52bd
000000e0: 5819 8d3d 2a03 283d 883f 05bc 1821 d53c
000000f0: 7ccb 373d 1b4b 17bd 53e4 9e3d 9b94 25bd
00000100: 670e 39bd 15d1 0d3c 5ae9 e93c 763c 773d
00000110: d1ff 2cba f864 6c3d 5ee7 96bb 01e8 003d
00000120: 0491 30bc 6568 55bd 608c ecbc 2df7 293d
00000130: 6f2d 77bd e7d3 563d 9d83 363d e25a f83c
00000140: 7011 90bd 5039 8ebd 2535 9e3d 239e 08bd
00000150: 27d7 42bd 99a6 b1bc 4dca b4bd 02a1 453c
00000160: e2e2 333d ae6a ae3c 0384 36bd ae01 9fbc
00000170: d242 a5bd 97b9 0d3b 4718 a6bc b8f3 afbb
00000180: db0a a73b 31c0 1b3c dbb0 ddbc 6d56 e23c
00000190: 2982 20bc 61bf 0abd 5a27 debc d5d0 7e3d
000001a0: 9326 0f3d 557f a23d e493 863d e4f4 1d3d
000001b0: b762 8e3d 0957 2ebd dba4 20bc 1664 ef3c
000001c0: a1ad a3bd 2b43 a9bc 8d9e 34bd 8bd8 2a3d
000001d0: a289 70bb 2984 34bd ca4a b5b9 0e78 49bd
000001e0: b137 2abd 7df8 30bc 3e63 a5bd 1d0b 0a3d
000001f0: 2992 843d 052d f43b 82b2 c3bc b611 9c3d
00000200: b611 fe3b 67fa c8bc 39fc 9cbd 7392 c6bc
00000210: 962b babb 5542 72bd c581 913d 0559 1e3d
00000220: bf47 82bd b88d 3b3d 757d 5abd daa0 633b
00000230: 7183 4d3c 55c5 b9bc 14a1 60bd 3b2b 8fbc
00000240: b057 abbc 5c33 95bd 388a 123c 659d 97bd
00000250: 0ad4 2ebd fc19 9a3d 702f cfbc 35ce 44bd
00000260: 3968 b2bc 0635 83bd 511f 5d3c dc6a 013d
00000270: 8881 d13b 5ae6 b3bd 4a3f 843c dfa6 843d
00000280: 52e5 3bbc 0617 973d 5760 76bd 2edd 423d
00000290: b131 98bd a6c3 a03d a55e 323d 4388 ba3d
000002a0: 31ff 813d 87ea 253d 8dc6 15bc f5ee c53b
000002b0: 6995 9bbd d419 ee3c c0de 48bd 30dd ba3b
000002c0: 0ba8 88bc 7132 39bd 6585 093d 2530 9ebd
000002d0: 8468 80bd df10 293c 0927 4e3d 88dc aa3c
000002e0: 943f a53d 1682 a7bc c128 383d a556 f13c
000002f0: abe1 503d 2048 83bc 866b 553d 1fcd 23bd
00000300: 5833 1cb9 eec3 863d 2581 43bd c432 99bd
00000310: 52bc bebb b5da 17bd 47dc febc c525 02ba
00000320: 756e a23d e4fc 923d 9395 60bd f7a9 ec3b
00000330: 9213 d33b db9c 00bd a413 8dbc f83a 833c
00000340: 67b4 ddbc e31b 033d bd42 8f3d 6473 0f3d
00000350: 1a82 d33c 827e f6bc f243 5fbd fcb0 3cbd
00000360: b26f b23d 6e7a 473d 3a08 853d a6c5 8c3d
00000370: 0769 98bc 7648 59bc 2d7e 4e3d 465e 32bc
00000380: e6d4 0fbd b880 88bd 81d9 743d 60ad 153d
00000390: 13dc 9b3b 46ba 8f3c d2b7 493c 1c31 a33c
000003a0: 39db c93c d983 683d bbe6 b23c 53e5 0fbc
000003b0: 8bcb 123c 49f0 9a3d ae76 b3bd 3594 6a3c
000003c0: 2e05 1ebd 5661 84bd f58a 723d 19f1 b83b
000003d0: e7f3 eb3c d345 de3c fc3d 9b3d 4381 583b
000003e0: 22b2 273d 04b4 373b c7fc aa3d 75f1 543c
000003f0: aeab 363d a647 ffba c68f 703c 9c62 0d3d
0.06853441 0.04870398 0.07030027 0.005675936 -0.04376297 0.054929446 -0.039122764 -0.0095008
-0.068259194 -0.003855511 -0.024261134 0.02139184 -0.016248666 -0.039870344 -0.0496458 -0.053191412
0.075179145 0.041389253 -0.0018562535 -0.011879414 0.018679714 0.053610846 -0.013149704 -0.043034274
-0.045956895 -0.024010975 -0.038853616 0.008654902 -0.0077147787 0.056258917 0.034874838 -0.061963454
0.01926537 -0.0359502 0.03863057 -0.0024495935 -0.028117992 0.0033804816 0.031617958 -0.0017877705
0.029730072 0.039202124 0.014899086 0.0009145584 0.07389757 0.017389212 -0.0045604105 -0.07401054
0.021878956 -0.07870631 -0.041655056 0.026000021 0.044555116 0.033133306 0.0038312841 -0.051511277
0.068895996 0.041018642 -0.008132823 0.026016757 0.044871792 -0.03693686 0.07758393 -0.040424924
-0.04517975 0.008655806 0.028553654 0.060360394 -0.0006599399 0.05771348 -0.004605218 0.031471256
-0.010776762 -0.05210151 -0.02887553 0.04149549 -0.060346063 0.05244818 0.04455911 0.030316774
-0.07034576 -0.06944525 0.0772498 -0.033353936 -0.047568467 -0.021685885 -0.08827648 0.012062313
0.043917544 0.021291103 -0.04455949 -0.01940998 -0.080693856 0.0021625513 -0.020275248 -0.0053696297
0.0050977296 0.009506271 -0.02706187 0.027629102 -0.009796658 -0.03387392 -0.027118374 0.062210876
0.034948897 0.07934443 0.06571177 0.038563624 0.06952422 -0.042563472 -0.00980493 0.02922253
-0.079921015 -0.020661911 -0.04409652 0.041710418 -0.003670313 -0.04407135 -0.00034578732 -0.04918676
-0.041557018 -0.010801432 -0.080755696 0.033702005 0.0647319 0.007451656 -0.02388883 0.076205656
0.007753576 -0.024533464 -0.07665295 -0.024239754 -0.0056814654 -0.05914529 0.0710483 0.038659114
-0.06361341 0.04578945 -0.0533423 0.0034733326 0.012543545 -0.022677103 -0.054841116 -0.017476669
-0.020915836 -0.07285187 0.008944087 -0.074030675 -0.042682685 0.075244874 -0.025291175 -0.048048217
-0.021778213 -0.06406598 0.013496236 0.03159605 0.006393615 -0.087841704 0.01614346 0.06477141
-0.011468248 0.07377438 -0.06015047 0.047574215 -0.07431353 0.07849817 0.04354729 0.09108021
0.06347502 0.040506866 -0.0091415765 0.006040449 -0.07596857 0.02906505 -0.049040556 0.005702637
-0.016681692 -0.04521412 0.03357448 -0.077240266 -0.06269935 0.010318964 0.050330196 0.02085711
0.08068767 -0.020447772 0.04496074 0.02946026 0.050996464 -0.016025603 0.052104495 -0.03999054
-0.00014896446 0.06580339 -0.047730584 -0.07480386 -0.0058207894 -0.03707381 -0.031110896 -0.00049647345
0.07931224 0.07177141 -0.054830145 0.00722241 0.006441542 -0.03139959 -0.01722128 0.01601933
-0.027063562 0.032009017 0.06995151 0.035022154 0.025818873 -0.03008962 -0.054508157 -0.046067223
0.087127104 0.048700742 0.0649571 0.06873636 -0.018604768 -0.013261905 0.0504133 -0.010886734
-0.035115145 -0.06665176 0.05977774 0.036542296 0.0047564595 0.017544877 0.012311893 0.019920878
0.024640666 0.056766365 0.021838536 -0.0087827025 0.008959661 0.07565362 -0.08762871 0.014317562
-0.03857916 -0.06463878 0.05921455 0.0056439755 0.028802825 0.027132904 0.07580182 0.003303603
0.040941365 0.0028030882 0.08348995 0.012997021 0.04459732 -0.0019476309 0.014682716 0.03451787

fc1.bias f4 [256]
00000000: d015 bf3b 0c89 043d 6cb9 843c b872 39bc
00000010: 58a7 093d 6396 503c f232 923d 3524 d93a
00000020: 13b3 babc 6e2d a33d c86d 36bd ffb5 0f3d
00000030: 1b81 1cbd d0d3 743d c9bb 533d 32ba 973c
00000040: 917f ec3c 2ea3 983d c53b 423d 4e95 ad3d
00000050: c0bd 3e3d 4cb0 7dbb 9e17 a0bb 7fff 8d3d
00000060: c971 5b3d 4924 483c 1945 f03b bb23 0ebd
00000070: 89af 5a3c 16df 693d 592c 4d3d 9568 25bc
00000080: 9f0e 9c3d cd7f 38bd 51ce 57bc 445e 603d
00000090: d4a8 1dbd 7e2f 953d 0378 2f3d 30be fa3c
000000a0: 9d5d 503d 4d58 273c 2380 223d b739 433a
000000b0: 4e3d ee3c 4298 4d3d dc37 383d a1bf 853d
000000c0: 366a 373d 0538 1b3c e22b a73c af49 493d
000000d0: 9872 4a3b 04d5 9c3d 8ff5 ee3b 2ec4 3cbd
000000e0: 196d 7f3c c8b5 a53c 7d2c 133d af69 b73c
000000f0: 6682 573d 4f12 993d db45 e5ba 564b dc3c
00000100: ce4d c93c edef a13d c3da 233d 5aac e5b9
00000110: 4265 b63b 2eec dcba 6bc6 4d3d 98b9 b23d
00000120: 5ce4 203d e71c 113d 1b83 033d de9c 0abc
00000130: 48bb a43d 0d95 433d 6807 623c 24f7 47bc
00000140: c8bb 8c3c fc5b 403d 378e 473d 1826 433d
00000150: 25c7 c53c fad7 03bb 27ac 053d dd96 9f3d
00000160: c5b9 023d 336a 113c 83ea b6bc a427 913d
00000170: 2e2f edbc b2f5 143d 7a01 953d 5eeb 5c3d
00000180: 0dec ab3d 53df afbb 5d0e 33bd 70b4 093d
00000190: 96a6 523c 1c65 033c cec6 7bbc 5e1e a23d
000001a0: 2a63 283c aef0 b83b 8bff 0f3d 91c7 b33c
000001b0: 9d5e 853d c010 193c d5fe 9c3d 61ee 213c
000001c0: b9f5 7f3d 8d87 9a3d 4383 713d 5252 043d
000001d0: edb8 41bc b41a 1a3d fa47 003d 46b7 083c
000001e0: a960 843d 2456 83bc eea5 883c 9e31 8d3d
000001f0: 729a 3b3d 80b0 543d 9963 18bc cd2d 243c
00000200: 762e 783d ce52 3c3d e2ae 253d 7543 d8bc
00000210: 4029 d1bc 9ec0 b03c 8d8e 673d 86f6 493d
00000220: a3d3 513d 511f e03c f72f 983d 165c ec3a
00000230: ac98 a33d bebf 123d bd13 a13d b982 8f3d
00000240: 6f5d 8a3b ffcc fe3c c677 1b3c 470b f53c
00000250: adfb 833d 521d 183c 24ed abbb 05aa 783b
00000260: d938 5e3c 69d7 b43d bee8 9e3d cbdf 1c3c
00000270: cb18 45bd c7e0 a33c 5427 443d 79c2 e13b
00000280: a94c 4a3d d13b 36bd 28cb b2bc 1743 623d
00000290: fe08 523d b041 273d 21a2 c3bb 3347 2c3d
000002a0: 0542 023d c28b d93c 02be 543d a0db db3c
000002b0: e62f ae3c 5bac a63c ff32 463d 31b4 753d
000002c0: f22a 8cbb e0bd 88bc c503 0d3d 1e95 763c
000002d0: 6aec 623c 5328 873d f6c7 603d 6e92 03bc
000002e0: 4091 233d dafc 1f3d 0c70 703c 0983 0f3d
000002f0: bef8 ab3b e818 6b3c bb38 e23c eda9 853d
00000300: 4e86 453d bdba 2dbd c714 973d 7143 b4b8
00000310: 891d 09bd 3682 683d 58b4 453d 3504 673d
00000320: 6e1f 573c d6d4 08bd 7b63 9cbb 6a1d 883d
00000330: 00ed 363c 08f8 3c3b a3c0 ac3c 3dbe 553c
00000340: ea18 963c c78a a53c 278c df3c 249e 15bc
00000350: 90dd cd3c e3fc 063c 959c 7c3d 06ab 033d
00000360: c9c8 263d 7810 a73d b088 9a3b b297 803c
00000370: 3e2e 2e3a 1cf5 1bbd 509d 573d d512 5a3d
00000380: fcdb a03d 90c0 0e3d 3028 2a3d 67fe 8d3c
00000390: 7a26 533d 84b1 8d3d fe4f 923d 07a2 0f3d
000003a0: 00a1 893d 049f 843d ca3b a03c aa24 82ba
000003b0: 940c a83c 30de 8b3d 92e0 29bc 3394 623c
000003c0: 5afa 993d c67a 813d 0406 123d 4592 953c
000003d0: 55ac fc3c f24d 9f3d 3fd4 473d 4487 013c
000003e0: 6cfa f73c 3979 673d 9cc2 f73c e01a 90b8
000003f0: 9ea4 9e3c e64f c63b 819b 4abd c21e 7f3d
0.0058314577 0.03235726 0.016201697 -0.011318855 0.033606857 0.0127311675 0.07138623 0.0016566577
-0.022790467 0.079676494 -0.04453829 0.035085674 -0.038209062 0.059772313 0.051692758 0.018521402
0.028869422 0.07452999 0.047420282 0.08475743 0.04656768 -0.0038709817 -0.004885628 0.06933498
0.05357531 0.012215682 0.007332456 -0.034702044 0.013347515 0.057097517 0.05009112 -0.010095735
0.07619976 -0.045043755 -0.013171748 0.0547774 -0.038491085 0.07284449 0.04283906 0.030608267
0.050870527 0.010213924 0.039672982 0.000744726 0.029081967 0.050194032 0.044975147 0.06530691
0.044779025 0.009473805 0.020406667 0.049142536 0.0030891057 0.07657817 0.0072924565 -0.04608553
0.015589976 0.020228282 0.0359311 0.022389261 0.052614592 0.07474195 -0.0017492132 0.026891392
0.024573233 0.0790709 0.04000355 -0.00043806696 0.00556627 -0.0016855055 0.050238054 0.087268054
0.03928028 0.035427954 0.032107454 -0.008460252 0.080435336 0.047749568 0.013795711 -0.012204919
0.017179385 0.046962723 0.04871961 0.04764375 0.024142811 -0.0020117746 0.03263488 0.07792447
0.031915445 0.0088754175 -0.02232862 0.07087639 -0.028953161 0.036367126 0.07275672 0.0539354
0.083946325 -0.0053671985 -0.04371487 0.033619344 0.0128571 0.008019712 -0.015367223 0.07915948
0.010277549 0.0056439256 0.035155814 0.021945747 0.06512187 0.009342372 0.07665793 0.009883494
0.0624902 0.075453855 0.05896307 0.03230507 -0.011823875 0.037623122 0.031318642 0.008344477
0.06463749 -0.016032286 0.016680684 0.06894229 0.045801587 0.051926136 -0.00930109 0.010020685
0.060591184 0.045977406 0.040449984 -0.026399354 -0.025532365 0.021576222 0.05653243 0.04930737
0.051227223 0.027358683 0.074310236 0.0018032815 0.07988104 0.03582739 0.07865093 0.07007355
0.004222564 0.03110361 0.009489005 0.029912604 0.06444488 0.009284334 -0.005246775 0.0037943136
0.013563358 0.08830149 0.07759236 0.009574841 -0.048119348 0.020004643 0.04788907 0.006889638
0.049389515 -0.04449064 -0.021825388 0.055239763 0.051278107 0.04083413 -0.005970255 0.04206009
0.031801242 0.0265559 0.051939018 0.026838124 0.021263074 0.020345857 0.048388477 0.059986297
-0.0042775804 -0.016692102 0.034427423 0.015050201 0.013850311 0.06599488 0.054878198 -0.008030517
0.039933443 0.039059497 0.014675152 0.035037074 0.0052481582 0.0143492 0.027614942 0.065265514
0.048223786 -0.042414416 0.0737701 -8.595631e-05 -0.033475433 0.056764804 0.048267692 0.056400497
0.013130052 -0.0334061 -0.004772601 0.06646235 0.011164904 0.0028834362 0.02108795 0.013045845
0.018322427 0.020207776 0.02728851 -0.009131942 0.025130063 0.008239004 0.061672766 0.032145523
0.040718827 0.08157438 0.0047160015 0.015697334 0.0006644464 -0.03807555 0.05264026 0.053240616
0.07854459 0.03485161 0.041542232 0.017333223 0.051550366 0.06918624 0.071441635 0.03506663
0.067201614 0.06475642 0.01955976 -0.000992914 0.02051381 0.06829488 -0.010368483 0.013829279
0.07518454 0.06322245 0.03565027 0.018258223 0.030843893 0.07778539 0.048786398 0.007905785
0.030270778 0.05651209 0.030244164 -6.871461e-05 0.019365605 0.006052005 -0.049464706 0.062285192

fc2.weight f4 [128, 256]
00000000: a5ca 803d 6b9c 883d 53bb dabc 5e21 2c3c
00000010: b3d6 1dbb 7062 c1bb 137b 9b3d 9b93 e6bc
00000020: 060c b8bc ff98 953d 0c1d 74bd b005 113c
00000030: 0f67 943d be48 3d3d 3dc3 d73d 18cc 9d3c
00000040: 3b3a 743d b9b1 333d f0fd d5bc 9b1b bd3d
00000050: 0723 1a3d f117 43bd d687 82bd d39a 70bd
00000060: aaa2 8e3d 1663 97bc 5b3b c0bc 8ca2 7b3d
00000070: 4c5e 583d e921 f13b 340d 02bc de3c 37bd
00000080: 9235 843d 5f07 1b3d c6fe aabd 10bb 383d
00000090: ad82 753d c37a b33d 2cf6 df3d 28eb c4bb
000000a0: dd93 813d a3be 8f3d 32a1 82bd f5ae 963c
000000b0: 0221 e93c 9fd1 073d 146a 023d 0f59 323d
000000c0: d4c8 523d 6a0a a6bd 4f6d fa3c 1dfb c23d
000000d0: 6276 7b3d 95db f13c fbd8 0abd 9cc2 ad3c
000000e0: f89d d13c b570 433d 9dd9 d63d eb6f c4bb
000000f0: 78c4 4c3d 95d8 823d 043f 803c 43af bb3d
00000100: e7ef abbc d159 ae3d 8048 a637 4c91 02bb
00000110: 1690 e9bb d45b 883d 7ada a4bd 1ed1 433c
00000120: e650 2d3d f041 bbbc 0944 963d c369 cfbc
00000130: 0799 133d 01ce d53c 8465 103d 476f babd
00000140: e0f8 533d d518 d73d 53e3 f53b 7061 663c
00000150: c930 6d3d d999 c3bd 3b55 9c3d 45a8 c93b
00000160: c92c 79bd 8e40 d93c 3ce2 adbd f1f5 f4bb
00000170: ec4e 90bd 1dde 5bbc 6627 e73d 36e8 c83d
00000180: a46f 533c 4fb5 cd3c a00a febc 2fb1 f0bc
00000190: 56b2 e5bb b044 8cbd 6efd 3bbd 953f fc3c
000001a0: bbc6 173d 3431 8abb f498 883c 92e9 9c3b
000001b0: 282b 233d 16bc f3bc 9009 b23d 3f70 adbc
000001c0: 8fdb 843d f967 46bb b0b1 473d 19c7 c73c
000001d0: e87f 573c 6253 483d 37b6 8a3c c5e8 213d
000001e0: 8ac7 393d 1aa7 853c 7259 eaba 3764 253d
000001f0: 772b 493c 2ee9 d73d dc0f 99bc 3263 9bbd
00000200: 498b a93d 613d 4f3d be73 413c d7a6 873c
00000210: fd6d a0bd 8c3e ce3a 6520 663d 72f6 a13d
00000220: 60b2 323d 8995 333c fce7 4dbc 63a6 55bd
00000230: 4ecb d93d 96ac fc3a 8504 993d aef6 ad3d
00000240: 2ea5 f8bc f5be b73d 7a10 0ebd cb09 27bd
00000250: d964 293d 6df0 25bd 79d8 e53c 4013 b13d
00000260: faae ef3c c7fa 103c 7509 00bc d3a3 623c
00000270: 3889 e13c e533 3ebd 201d 0e3d 1d20 163d
00000280: a07c b03b d3b5 de3c a659 d3bc 3073 093c
00000290: 59f2 9b3d a8c2 21bd 3ccd d43c cd89 a6bb
000002a0: edce a13d 73bb 0b3c a0fe 4c3d 52d5 b1bc
000002b0: 3add 20bd 9694 793d f9bc 063d ddb2 8e3d
000002c0: e87e 953d a4c6 ddbc 1dcb da3c 9de6 163d
000002d0: 137d 09bc 466e 1fbd 82c4 be3d 1986 5a3a
000002e0: 05c5 c73c 69a9 9e3d b353 0e3d a463 c03d
000002f0: ad01 aabc a169 353c 4624 59bc 7032 be3d
00000300: 201b 943c 48a0 6f3d f822 b43d f874 993b
00000310: 743e 6abc 0859 9b3d d42b 2c3d 4f12 5dbc
00000320: 482f 233d 6878 2ebd 8969 673b b195 c93d
00000330: a0ad 6a3c 654a 573d 72ff 2bbd 5eba 3c3d
00000340: df8f 9f3d d0b6 2ebd 670d c53c d68e 0cbd
00000350: 879b 31bd db55 01bc e15e 983c 68f4 fe3c
00000360: 3233 8d3d 602f 783d 8068 82bb f238 30bc
00000370: f65f b23b b89a 8abc 3cce d13c dd56 243d
00000380: 232e d8bc 7b97 9d3c 8ae2 943c b1f8 0c3c
00000390: a487 523d 14db c13d 5a7a 6cbd 69df 2a3d
000003a0: f433 bebc c8b5 773a 8b32 fb3c 6bcc 8ebd
000003b0: 03a5 fd3c 228e 533d 07d8 243c 953f 93bd
000003c0: 2ab6 423c a679 423d a87b c83d 887d 543d
000003d0: 0b82 bd3d b2a4 27bc 84f5 6f3d cc22 6bbd
000003e0: 7cb7 153d 436c ad3c 4b9e cabb 744b 8f3c
000003f0: 218e a5bc a38c 013d 22f0 4abd 8cc0 a2bc
0.062886514 0.06670459 -0.026700651 0.010506002 -0.002408427 -0.0059016272 0.07591834 -0.028146556
-0.02246667 0.07304572 -0.059598014 0.008851454 0.07246219 0.04621195 0.105352856 0.019262359
0.059625845 0.04387066 -0.026122063 0.09233781 0.03763106 -0.047630254 -0.06373565 -0.058741402
0.069646195 -0.018479865 -0.023465803 0.061434314 0.052824304 0.0073587787 -0.007937718 -0.04473578
0.0645553 0.037848826 -0.083493754 0.04510027 0.059939075 0.08763649 0.109356254 -0.006009478
0.06327031 0.07018783 -0.06378402 0.018393973 0.028458122 0.033158895 0.031839445 0.043541964
0.051461056 -0.08107455 0.0305697 0.09520552 0.061392196 0.02952365 -0.033898335 0.021210961
0.02558802 0.047714908 0.10490725 -0.005994787 0.049992055 0.06388966 0.015655048 0.09164288
-0.020988418 0.08513225 1.9822503e-05 -0.001992303 -0.007127772 0.0665814 -0.080494836 0.011951713
0.04231348 -0.02285859 0.073371954 -0.025318986 0.03603461 0.026099207 0.035253063 -0.09103256
0.051751018 0.10502783 0.007503906 0.014061317 0.057907853 -0.095508285 0.07633444 0.0061540925
-0.060833726 0.02652004 -0.084904164 -0.0074756076 -0.07046303 -0.013419655 0.112868115 0.09809916
0.012905035 0.025110869 -0.031010926 -0.029381363 -0.0070097847 -0.068490386 -0.045895986 0.030792037
0.03705476 -0.0042172913 0.016674496 0.004788586 0.03983608 -0.029752772 0.0869323 -0.021171687
0.0648719 -0.0030274375 0.04875344 0.02438693 0.013153054 0.048907645 0.01693259 0.039528627
0.04535631 0.016315032 -0.001787944 0.040378775 0.012278429 0.10542522 -0.01868432 -0.075872794
0.0827852 0.050595645 0.01180738 0.016559048 -0.078334786 0.0015735193 0.056183238 0.07908334
0.043627143 0.010960945 -0.012567516 -0.052160632 0.106344804 0.0019277509 0.07471565 0.08494316
-0.030352201 0.08971969 -0.034683682 -0.040780824 0.04135594 -0.04051249 0.028057324 0.0864625
0.02925824 0.0088488525 -0.007814755 0.013833004 0.027531251 -0.04643621 0.034695745 0.03665172
0.00538595 0.02718631 -0.025799584 0.008389279 0.076145835 -0.03949228 0.02597677 -0.005082345
0.07900796 0.008528578 0.050047517 -0.021708164 -0.039273478 0.06093272 0.032895062 0.06967709
0.07299596 -0.027072258 0.02670818 0.036841024 -0.008391636 -0.038923524 0.09314825 0.0008336022
0.024385938 0.07747156 0.03474779 0.09394005 -0.020752752 0.011072547 -0.013253277 0.09286964
0.01807934 0.058502465 0.08795732 0.004683133 -0.014297117 0.07585341 0.042033985 -0.013493135
0.039840013 -0.042595297 0.0035310707 0.098430045 0.014323622 0.052561183 -0.04199166 0.04607617
0.07791113 -0.042654812 0.024054242 -0.034315906 -0.043361213 -0.007894005 0.01859993 0.031122401
0.0689453 0.060592055 -0.0039797425 -0.010755764 0.0054435683 -0.016919479 0.025611036 0.0401219
-0.026389187 0.01923727 0.018174428 0.0086042145 0.05139889 0.09465614 -0.05773387 0.041716967
-0.023218133 0.000944939 0.03066375 -0.069725834 0.030962473 0.05164922 0.010061271 -0.07189862
0.011884252 0.047479294 0.097892106 0.05187753 0.09253319 -0.0102321375 0.05858375 -0.05740623
0.036551937 0.021169787 -0.006183421 0.017492034 -0.020209374 0.031628262 -0.049545415 -0.019867204

fc2.bias f4 [128]
00000000: 074e 023d 94f9 973d b283 363d 1488 903d
00000010: b2d9 813b 936c 9f3c 9d5b 67bd 0a84 06bd
00000020: 22ac aa3d 0efd 863c be46 dabc 4ebe 40bd
00000030: cfb2 013d 9201 21bd 714a 293d 3daf 41bd
00000040: 301a 3dbc 2aec 663d 5acc 29bd c83d ff3c
00000050: b3b7 9ebc f636 27bd 7bc1 d63b 8fe4 e6bc
00000060: e10f b33c f6d9 74bd a154 6f3d ffc1 553d
00000070: 2262 673d 5636 943d fd1c 8a3c 44c4 2c3c
00000080: 6a38 193d 726f 12bd 55d0 bf3d d36f 8f3d
00000090: 8feb c23c 2bd1 46bc 96e8 b03d 3eea 2abd
000000a0: b86e 28bc a360 583d fecd 963c bd84 7e3d
000000b0: 0f19 293d f232 54bd 8bcd c5bc 04dc a93d
000000c0: 408f b63d e8a2 d13c e027 1a3d 9446 e4bc
000000d0: 6f02 41bd ae2b b23d 78d6 86bc d455 7cbd
000000e0: 3af8 b83b f788 633b 019e 52bd a74d 563d
000000f0: e240 583d 8d6a 863d ed71 153d 5e3e 5e3d
00000100: ba32 863d 5e9c 4fbd c0d5 9a3d df49 043c
00000110: 138c 313d 2401 c63d d038 23bd 8c65 a43d
00000120: 68a0 883d 072a 763d 3af3 3b3d 514d 123d
00000130: 0f19 ab3d afe2 30bd 0caa 4abd d649 343d
00000140: 7aec 5e3c 929a 9a3d 1623 523d 7e1b 4abd
00000150: 55a2 893d b366 4bbd b983 463d 9127 05bd
00000160: 910b acbc f014 223d ef06 5dbd d3f6 573d
00000170: 3ad2 a83d ec6b acbc bab8 1e3d a28a 2c3b
00000180: 8566 7dbd 08c4 853d dd75 693c ed50 c7bb
00000190: c23a a23c 24c2 813d 14bd 103d 65d3 d9bc
000001a0: 103d ad3d 021a f73c 4ac8 bfbc dd53 c5bc
000001b0: 641f 473d c6d1 473d b34c 293d 0420 5cbd
000001c0: 9df1 ed3c d9c3 bdbc aada 883d 2dee 573d
000001d0: 7c07 533d 27d5 663d 8b1e e63c e011 17bd
000001e0: 9f06 bf3c d047 323d 0c3e e33c 37ca 213d
000001f0: 556d 913d 063c 453d 45b5 103d 6c64 36bd
0.031812694 0.0742065 0.04455919 0.07057205 0.003962719 0.019460952 -0.056483854 -0.032840766
0.08333613 0.016478088 -0.02664506 -0.04705649 0.031664666 -0.03930814 0.04133076 -0.04728626
-0.011541888 0.056377567 -0.04145465 0.03115739 -0.019374704 -0.0408239 0.0065538264 -0.028185157
0.021858158 -0.059778176 0.058430318 0.052186962 0.05649007 0.07236926 0.016859526 0.01054484
0.037407316 -0.035750814 0.09365908 0.07003751 0.023793964 -0.0121348305 0.08638112 -0.041727297
-0.010280304 0.052826535 0.018408772 0.062138308 0.041283663 -0.051806398 -0.024145862 0.08293918
0.089140415 0.025590375 0.037635684 -0.027865686 -0.04712146 0.086997375 -0.016459689 -0.06160529
0.0056448253 0.0034719089 -0.051420216 0.05232015 0.052796252 0.06563292 0.0364856 0.054258697
0.06552644 -0.050686233 0.07560301 0.008074253 0.043346476 0.09668186 -0.039849102 0.08027181
0.0667122 0.060098674 0.045886256 0.035718266 0.08354389 -0.043184932 -0.049478576 0.044015728
0.013606185 0.07549013 0.05130299 -0.049342625 0.067204155 -0.04965849 0.048465464 -0.032508437
-0.021001609 0.03957075 -0.05396169 0.052725624 0.082432225 -0.021047555 0.038750388 0.0026327749
-0.06186535 0.065315306 0.014249292 -0.006082645 0.019803409 0.063358575 0.03533657 -0.026590059
0.084589124 0.030163769 -0.023410935 -0.02408784 0.04861392 0.04878404 0.04133291 -0.05374147
0.029045874 -0.023164677 0.06682332 0.052717377 0.05152081 0.05635562 0.028090736 -0.03688228
0.023318587 0.043525517 0.027739547 0.039499488 0.071009316 0.048152946 0.035329122 -0.044529364

fc3.weight f4 [3, 128]
00000000: a4f1 a3bc 18aa c7bd 3697 f3bd e1e2 dc3d
00000010: 9065 7cbc a88e cebc 73ce 653d 0800 a5bd
00000020: 7d0e dc3d 1d84 fabd 9ccc 7ebd 38bc f1bb
00000030: f8b4 9d3d c3c6 a43d 93be bebc bd05 72bd
00000040: 3ab0 1c3d f7fc 7f3b a2a1 933d 591b e13d
00000050: cccd f53d 2371 50bd 9ccf cdbd 2f93 8cbd
00000060: 5d02 b7bc 73e0 d33c e312 a9bc d2ec b53a
00000070: 657a 8f3d e214 84bd 4ae1 f93d b0dd 833d
00000080: af48 42bc 8480 9b3d 8fde b6bd 2159 003e
00000090: 32ca c6bd d355 993d 9056 17bc 250d 243d
000000a0: 7e3e 99bd 27db 8b3d 0873 ea3d 6cc8 afbc
000000b0: 784e bcbd f08d ff3b d9ca d3bd b0d4 4fbd
000000c0: 17ba fbbd c740 60bd 98ad cabd 3c63 fcbc
000000d0: f28b 07bd 32f7 d93d 745b 763d 8ed8 6dbd
000000e0: fea9 1ebc bd13 2bbd c415 49bd 0ade b4bd
000000f0: 6d2a 30bc a41f e1bd efc7 f1bd 2150 adbd
00000100: 8a3f a63d 742f 50bd ff2f ffbd ec40 88bb
00000110: 142e a3bd 62d1 bd3d 024b 933d 9ad2 debd
00000120: 3cbd ca3d c4bb a9bd dd16 d33d 4067 2dbd
00000130: 36ab 7b3d 22e5 9bbc 081d 9d3c c833 a6bd
00000140: 67a2 8e3b 21b4 d93d a341 b7bd 1f18 a1bc
00000150: 573b 943d 62f2 00bd fad4 cc3d ce70 bbbd
00000160: 6c6d f1bd 09ce 03be b62b dfbc 43dc 563c
00000170: b4d5 013e 2696 ec3c 47e2 22bd 050a 6e3d
00000180: aba4 93bd b619 32bc a033 973d 2fae 923d
00000190: 7ef7 d7bd b5e6 c13d 06f2 483d 761b 113d
000001a0: 3c44 e5bd ad85 7d3d 5d32 34bd 86d4 01be
000001b0: 2dc0 193b 9c8c 9a3b 05f1 96bd eccb 61bd
000001c0: d50d aa3b 11c4 05bc 4486 8f3d 3758 ea3d
000001d0: 4212 033e 9873 213d 039e e3bd aa7e cebd
000001e0: 9bf1 913d 6824 d3bd 8f9c 933d 09eb e53d
000001f0: 97ba 5ebd ac36 523d eacc b0bd 031a 75bd
00000200: f648 3abd 1f81 d73c 9e0f 4b3d a15f c43d
00000210: 5451 cf3d f1bd 273d 75d3 f13c d460 643d
00000220: 22ec 91bc ec1a a93d a93b fdbc e0e2 56bd
00000230: f2ed 51bd e8b6 a1bd 6999 a93d 1027 1dbd
00000240: 8a3f 9dbd 6d03 b2bd bd18 883d 0bcc 93bd
00000250: 2be5 c2bd bef7 0bbd 80fb 03bc d669 8fbd
00000260: e678 8ebc 3cf5 b93b 676b 913d adb6 a13d
00000270: e06e 10bd 444f ab3d c709 c2bc 96f6 bdbd
00000280: 4bd6 d03d ea06 9f3c 82af fbbd 0ca3 06bc
00000290: 649f ffbc ecb7 90bd 7fb6 02be 3dd6 d73c
000002a0: 0545 943d 2d19 443d 8fe8 bd3d 64cb 973d
000002b0: fb53 ec3d e00d a33c 81e6 de3d c8af edbc
000002c0: dafc c3bd e406 863d 9def 313d 4493 1b3d
000002d0: aac5 643d a59d d8bd 23ff e43c 368c 483d
000002e0: 3725 28bd 894b 543d 2bb2 c83c a361 be3d
000002f0: c4c0 9abc f8f1 e5bd 77b1 05be f18a d23d
00000300: 48db a4bd 6912 42bd 7253 0ebe fdc4 cc3d
00000310: 8601 b6bd 1370 2ebd e415 84bd 3aca ee3d
00000320: a6b7 dabd 9757 d13d e4b9 91bd e30a 29bd
00000330: 6da1 babd c7f6 2c3d 6f18 97bd 62f3 f33d
00000340: dba6 4fbd 2558 6fbd b815 dabd c81f 803d
00000350: 0d46 b8bd 6dce c7bc cf38 f73d 621c 5a3d
00000360: e1df 36bd 4d06 a03d 1f29 063d 6224 e9bd
00000370: e21f 85bc d809 a3bd e4fe f13d 7d64 303d
00000380: e246 043c a024 00be b182 59bd f22a 07be
00000390: 7f8d 3c3c 839b eabc 3b93 d2bd fec6 2dbd
000003a0: 90bf b73c 1076 b8bd 2027 853d ef1d dcbd
000003b0: 9cd2 e03d 6106 b5bd 9b63 a53d 320c c03c
000003c0: 1e0c e13d 74f6 923d 0acb 7cbd 1234 25bd
000003d0: e092 5abc 0080 febd 0168 36bd fe60 883d
000003e0: 0eac ae3d 7d22 cebd 898e a63d ef65 f8bc
000003f0: 488f b63d bb94 233d d94e 7f3d f97e 8b3c
-0.020012684 -0.0974924 -0.118940756 0.10785461 -0.015405074 -0.025214508 0.05610509 -0.080566466
0.10744951 -0.1223223 -0.06220685 -0.0073771738 0.07700533 0.08045723 -0.023284232 -0.059087504
0.038254 0.003906069 0.072085634 0.10991544 0.12002143 -0.050889146 -0.10049364 -0.068640105
-0.022339994 0.025863862 -0.020638889 0.0013879782 0.07005767 -0.064492956 0.122011736 0.06438768
-0.011858149 0.07592872 -0.089291684 0.12534 -0.097065344 0.07487073 -0.009236947 0.040051598
-0.074826226 0.06828909 0.11447722 -0.021457873 -0.09194654 0.0077989027 -0.103414245 -0.050739944
-0.12291353 -0.054749276 -0.09896392 -0.030809037 -0.033092447 0.10642852 0.06014581 -0.05806785
-0.009684084 -0.04176687 -0.049093023 -0.08831413 -0.010752303 -0.10992363 -0.118057124 -0.08462549
0.08117588 -0.050826505 -0.124603264 -0.00415813 -0.07967773 0.09268452 0.07192041 -0.10880013
0.09899375 -0.082877666 0.10307095 -0.042334795 0.061442576 -0.019030157 0.019178882 -0.08115345
0.004352856 0.1063006 -0.08948066 -0.019664822 0.07237881 -0.031481154 0.100015596 -0.09152375
-0.11788449 -0.12871565 -0.027242523 0.013114038 0.12679178 0.02888019 -0.039766576 0.058115024
-0.07209142 -0.010870388 0.073828936 0.07162129 -0.10545252 0.09467832 0.049058937 0.03542658
-0.11194655 0.06189506 -0.043993343 -0.12678728 0.0023460493 0.004716469 -0.073701896 -0.055126116
0.005189637 -0.008164422 0.07008031 0.11442607 0.12799934 0.03941688 -0.11114123 -0.10082753
0.07126161 -0.10309678 0.072075956 0.1122647 -0.054377165 0.05132167 -0.08632834 -0.05983926
-0.045479737 0.026306687 0.04957544 0.09588552 0.10122934 0.040952627 0.029519776 0.055756405
-0.017812792 0.08257088 -0.030912237 -0.05246246 -0.051252313 -0.07896215 0.08281214 -0.03836733
-0.07678135 -0.0869206 0.066453435 -0.072166525 -0.095163666 -0.034171812 -0.008055568 -0.070026085
-0.017391633 0.005674986 0.071005635 0.07896171 -0.03526199 0.08364728 -0.023686303 -0.09275548
0.10197123 0.019412477 -0.12289335 -0.008217584 -0.031203933 -0.0706633 -0.12764929 0.026347274
0.07239727 0.047875572 0.09272873 0.074118406 0.115394555 0.019904077 0.10883809 -0.029014483
-0.09569712 0.06544283 0.043441404 0.03798224 0.05585257 -0.10576943 0.02795369 0.04896184
-0.041051116 0.05182985 0.02449902 0.092959665 -0.018890746 -0.112277925 -0.13055979 0.10280407
-0.08049637 -0.04738084 -0.1389902 0.0999851 -0.08887009 -0.04258735 -0.06449488 0.116596654
-0.106795594 0.102217846 -0.07115534 -0.041270148 -0.09112821 0.042227533 -0.07377707 0.11911656
-0.050696235 -0.05843367 -0.10648674 0.06256062 -0.08997736 -0.024390424 0.12071382 0.053249724
-0.0446471 0.07813702 0.03275406 -0.113838926 -0.016250554 -0.07960862 0.11816195 0.043064583
0.00807354 -0.12513971 -0.053103153 -0.13199976 0.011508345 -0.028638607 -0.10281988 -0.042426102
0.022430211 -0.09006894 0.06501603 -0.10747897 0.109776706 -0.08839107 0.08075639 0.023443315
0.10988639 0.071759135 -0.06171707 -0.04033286 -0.013340682 -0.12426758 -0.04453278 0.06659125
0.085289106 -0.10065172 0.08132655 -0.030322043 0.089140475 0.039936762 0.062331054 0.017028319

fc3.bias f4 [3]
00000000: 2243 74bd 19f6 e53b 6490 7b3d
-0.059634335 0.0070178625 0.061417
