face_classifier_2_Visual_50Epochs.pth (torch, 661388 bytes, 6 tensors)

fc1.weight f4 [256, 512]
0.017234385 0.015787473 0.028737007 0.057264525 0.057028 0.01881071 -0.022923812 0.07215754
-0.02161913 0.0011369876 0.0021124477 -0.04987678 -0.028808292 -0.028054321 0.01189971 -0.0660867
-0.007204913 0.042567756 -0.011275295 -0.054706033 0.0648406 0.05028673 -0.025953937 0.0313683
-0.07214484 -0.026160553 0.0047635743 0.0607732 -0.006779396 0.039159376 -0.036180656 -0.03339674
0.04049025 -0.037286185 -0.0097704725 0.006823124 -0.034983225 -0.010965925 -0.0309751 0.001100425
0.020286862 0.020194883 0.066314854 -0.04517084 0.00977903 0.04970341 0.025952632 -0.010916635
-0.026978586 -0.012489419 0.024907416 0.045367472 -0.008250043 0.060360048 -0.028919423 0.041103505
0.082801096 -0.055540517 -0.017879039 0.068087436 -0.028094875 -0.0009319095 -0.010638397 0.0038418537
0.0033160609 0.067949094 -0.031560913 0.010285897 0.049671125 -0.0101693375 0.03344929 0.019290294
0.023346437 -0.07231834 0.038129292 0.023808423 -0.006209388 0.043349408 -0.04756036 0.07451596
-0.040810402 -0.00038176964 0.058195595 0.05885484 -0.024321673 0.04301911 0.025905043 0.023626467
0.03870841 0.07634168 -0.017339218 0.08878901 -0.0574439 0.002196264 -0.021312231 -0.058340717
0.007884337 0.0029586002 0.034645654 -0.0022736285 -0.03010528 -0.006697914 -0.003025922 -0.011929692
0.06640906 0.07440778 -0.026862595 -0.046257243 0.010369064 -0.0067578414 0.014877477 0.06747716
-0.028478963 -0.0742429 0.0696788 0.05104364 0.053277675 -0.0273279 0.001954307 -0.017598802
-0.009507656 -0.06291775 -0.002337019 -0.023735145 0.027200036 0.06153869 -0.03167416 0.020845857
0.07255864 0.00037146 -0.015773771 0.0438914 0.04149107 -0.037042912 0.07593557 0.04830411
-0.015665501 -0.0028429243 -0.05751107 -0.013369849 0.006504206 0.0011457478 -0.013647942 7.315702e-05
-0.023518765 0.048533782 0.008652089 -0.000590234 0.022640858 0.0041778786 -0.033304285 -0.045246195
0.0085783955 0.058334395 -0.08014027 0.06805225 0.059821423 -0.027560433 -0.02976167 -0.0763761
0.071543664 -0.051988464 -0.063185625 -0.057295855 0.035799373 -0.041132405 -0.0237316 0.0075826924
-0.013235936 -0.021947958 -0.025552334 -0.079413846 -0.05325957 0.008356564 -0.036483407 -0.020774743
0.04541609 -0.057585903 -0.03220855 -0.069992766 -0.046332188 0.0044974126 0.04033307 -0.05667632
0.07228555 0.042939946 0.0041159503 -0.05852988 -0.010422581 0.042113107 -0.0754498 0.07760798
0.03810996 -0.00033080915 -0.015974509 -0.00019183112 0.0054689352 -0.05585211 0.053049106 -0.02408443
-0.023120742 0.046119444 0.0031416533 -0.0029708173 -0.057708707 0.035790727 -0.03098091 0.00021297298
-0.040333062 0.027461577 -0.016353663 0.079439946 0.026151396 -0.014472236 -0.05638104 0.016609075
-0.048998766 -0.022310548 -0.04264469 -0.040091615 0.024526572 -0.027128702 0.04526624 0.058812685
-0.00499816 -0.07872425 -0.07079835 0.033675794 0.06998633 -0.028282002 0.033763953 -0.0028210352
0.0859684 -0.011520958 0.06953006 0.010148209 -0.07190578 -0.009304627 0.01548324 0.034560367
0.028966933 -0.02249707 -0.014322384 -0.082644895 0.017493786 -0.00034204347 -0.030963106 0.04811934
0.058300838 -0.037666682 0.046190716 0.019150453 0.0481156 -0.05301729 0.0027386004 -0.03334184
00000000: 202f 8d3c bb54 813c df69 eb3c 358e 6a3d
00000010: 3196 693d eb18 9a3c b8ca bbbc 55c7 933d
00000020: 9a1a b1bc f906 953a fe70 0a3b 984b 4cbd
00000030: 5eff ebbc 2dd2 e5bc 00f7 423c 7758 87bd
00000040: 3117 ecbb 875b 2e3d 04bc 38bc 6f13 60bd
00000050: 26cb 843d 75f9 4d3d 5a9d d4bc 0c7c 003d
00000060: adc0 93bd a84e d6bc c217 9c3b 52ed 783d
00000070: b225 debb 9565 203d 2b32 14bd 05cb 08bd
00000080: 1bd9 253d 66b9 18bd 5514 20bc 8394 df3b
00000090: 924a 0fbd 6caa 33bc 7ebf fdbc 233c 903a
000000a0: a230 a63c bd6f a53c 15d0 873d 0f05 39bd
000000b0: 3a38 203c ce95 4b3d 9d9a d43c b0db 32bc
000000c0: 3202 ddbc 6ca0 4cbc a30a cc3c 3ed3 393d
000000d0: 302b 07bc 193c 773d 6de8 ecbc 265c 283d
000000e0: 9f93 a93d 747e 63bd 1077 92bc 6d71 8b3d
000000f0: 3927 e6bc 634b 74ba ac4c 2ebc 9cc7 7b3b
00000100: 4552 593b e528 8b3d 0446 01bd 2e86 283c
00000110: f373 4b3d 4b9d 26bc 1f02 093d ae06 9e3c
00000120: 0741 bf3c a31b 94bd 762d 1c3d e209 c33c
00000130: 1f78 cbbb 268f 313d a7ce 42bd d39b 983d
00000140: cf28 27bd 4128 c8b9 815e 6e3d c611 713d
00000150: 3f3e c7bc ce34 303d d036 d43c 4b8c c13c
00000160: b68c 1e3d 0759 9c3d fa0a 8ebc 03d7 b53d
00000170: 4b4a 6bbd 32ef 0f3b fd96 aebc adf6 6ebd
00000180: 4e2d 013c 13e5 413b 9ae8 0d3d 2801 15bb
00000190: 599f f6bc 2d7a dbbb 8c4e 46bb c174 43bc
000001a0: 7901 883d 1b63 983d f20e dcbc 3c78 3dbd
000001b0: 02e3 293c e270 ddbb a9c0 733c 7731 8a3d
000001c0: b74c e9bc a90c 98bd c2b3 8e3d 2313 513d
000001d0: b139 5a3d c3de dfbc d513 003b 5d2b 90bc
000001e0: 00c6 1bbc 05db 80bd ac28 19bb 3570 c2bc
000001f0: 9cd2 de3c fe0f 7c3d c4bc 01bd eec4 aa3c
00000200: a099 943d 84c0 c239 ff37 81bc 78c7 333d
00000210: 8af2 293d 4fba 17bd 1c84 9b3d 88da 453d
00000220: f054 80bc 5b50 3abb ba90 6bbd 360d 5bbc
00000230: 3c21 d53b eb2c 963a 9e9b 5fbc e06b 9938
00000240: 6daa c0bc 5ccb 463d 7ec1 0d3c efb9 1aba
00000250: 5279 b93c 96e6 883b 136a 08bd 1354 39bd
00000260: 668c 0c3c 0cf0 6e3d 9520 a4bd fa5e 8b3d
00000270: 4f07 753d 6bc6 e1bc bfce f3bc 136b 9cbd
00000280: 7c85 923d dbf1 54bd 7767 81bd 0faf 6abd
00000290: 5da2 123d 747a 28bd c668 c2bc 3c78 f83b
000002a0: 8adb 58bc 34cc b3bc 2153 d1bc baa3 a2bd
000002b0: b526 5abd f8e9 083c a06f 15bd cb2f aabc
000002c0: 3906 3a3d 32df 6bbd 1ded 03bd 5e58 8fbd
000002d0: d2c6 3dbd 085f 933b 4a34 253d 6e25 68bd
000002e0: 720a 943d cce1 2f3d 18df 863b 07bd 6fbd
000002f0: 79c3 2abc cb7e 2c3d 6d85 9abd eff0 9e3d
00000300: 3019 1c3d 7470 adb9 f9dc 82bc 4626 49b9
00000310: c134 b33b 2fc5 64bd 054a 593d b64c c5bc
00000320: b667 bdbc bee7 3c3d 32e4 4d3b 0bb2 42bb
00000330: f75f 6cbd 4c99 123d adcb fdbc 8051 5f39
00000340: 4834 25bd 1af7 e03c 1ef8 85bc 69b1 a23d
00000350: 743b d63c f51c 6dbc ceef 66bd c10f 883c
00000360: eeb2 48bd 9cc4 b6bc 33ac 2ebd 1b37 24bd
00000370: f3eb c83c 033d debc 1869 393d 92e5 703d
00000380: 9bc7 a3bb 2e3a a1bd bafe 90bd a1ef 093d
00000390: fe54 8f3d a8af e7bc 124c 0a3d 1ee1 38bb
000003a0: 3310 b03d 66c2 3cbc c765 8e3d ac44 263c
000003b0: 5643 93bd 6f72 18bc 6aad 7d3c 2c8f 0d3d
000003c0: 104c ed3c c64b b8bc 6fa8 6abc ba41 a9bd
000003d0: 214f 8f3c 4c54 b3b9 57a6 fdbc c918 453d
000003e0: dccc 6e3d 6148 1abd 7a32 3d3d 69e1 9c3c
000003f0: dd14 453d a828 59bd 177a 333b 7491 08bd

fc1.bias f4 [256]
0.05909388 0.05855502 0.012362533 0.006449695 0.040994026 0.033888888 0.054547787 0.011073265
0.04934216 -0.0045669135 -0.0022926838 0.006152417 0.0726151 0.05490064 -0.018421298 0.05886846
0.056999907 0.048119713 0.050143447 0.074571334 0.023811746 0.036653243 0.03546314 0.027420241
0.06512604 0.042673346 -0.0036409749 0.03446381 0.04426627 0.030207314 0.025206992 -0.013459735
-0.03399259 -0.00035795534 0.02218751 -0.05204604 0.023562545 0.005805423 0.04666791 0.03395403
0.024369938 0.046491284 -0.004976306 0.008245266 0.020950245 0.04568982 -0.03588404 0.009167372
0.043515194 0.05479947 -0.012537775 -0.034723796 0.030584974 0.044594012 0.013908806 0.025650615
0.03435887 0.018553944 0.050982766 0.030831695 0.017145159 0.06746509 0.029309288 0.030542687
0.022392783 -0.008001416 0.023207085 0.07406777 0.03591807 0.042123877 0.032445237 0.015552402
0.035729244 0.005398347 0.032838598 0.042056106 0.046921954 -0.024351884 0.036958486 0.0494568
0.053865533 0.05479629 0.018292405 0.03537173 0.013175125 0.03861091 0.06671961 0.054128155
-0.0028607748 0.068575695 0.015181587 -0.001113741 -0.018488673 0.02528012 -0.008878373 0.0033853557
0.02470974 -0.032361645 0.03902925 0.033658847 0.021026284 0.047825377 0.06371382 -0.03051496
-0.0036809382 -0.050448917 0.044803187 -0.0013504318 0.021210464 0.026921485 0.06792855 0.028567484
-0.0058620367 -0.045220654 0.03243609 0.005851944 0.027362498 -0.009567025 -0.02484135 0.01987926
0.007080725 0.05601005 0.06810055 0.019307625 0.07654075 0.009606445 0.026955038 0.061757967
0.017782714 0.07529666 0.057804633 0.007625612 0.06763233 0.024168124 0.019406332 0.01988208
0.0036391143 0.044168953 0.068500325 -0.038604982 0.037748717 0.0046345284 0.037250753 0.053653814
0.061101776 -0.017396752 0.06607299 0.06404578 0.05770137 0.07583869 0.039046124 0.06495795
0.038568787 0.007101261 -0.038793474 0.008527626 -0.03775744 0.026087578 0.016045136 -0.040223286
0.023302699 0.069993064 0.07649652 0.012136632 0.013608979 0.07104742 0.033616934 0.019390844
0.053021193 0.043948762 0.071696244 -0.028858766 0.016795618 0.024001608 0.036882173 0.060614165
0.04482151 0.021739604 0.06267138 0.03979573 0.027474655 0.008258442 0.07145966 0.07763843
0.026032314 0.045286622 0.08159936 -0.040322863 0.06067474 -0.019399427 0.033027302 0.082269005
0.011699816 0.07671235 0.061947204 0.07845251 0.07648661 -0.014920806 0.06694779 0.004247792
0.037180044 0.039471485 0.082797304 -0.022772176 0.04369801 -0.040595908 -0.008029412 0.059728812
0.050144117 0.044125922 0.037071 0.004148328 0.039313816 0.00375802 0.07891366 0.033836015
0.027815271 0.028009487 0.042108823 0.013529695 0.04508123 0.03684724 0.073006585 0.043056723
0.01220019 0.03756507 0.06492723 0.010523657 -0.03150151 0.0047766706 -0.008428391 0.048602216
0.032985 0.053090565 0.0047362666 0.075026885 0.017367257 0.03265728 0.07465889 0.042190038
0.046457984 -0.03893086 0.01117108 0.0016623551 0.07296797 -0.023737526 0.0078536365 0.04544583
0.06599244 0.019008081 0.013229018 0.057229053 0.068504915 0.031552237 0.075030155 0.067456685
00000000: 6d0c 723d 63d7 6f3d 398c 4a3c f757 d33b
00000010: 5ae9 273d 13cf 0a3d 806d 5f3d a46c 353c
00000020: 011b 4a3d 0ca6 95bb da40 16bb 379a c93b
00000030: 3ab7 943d 7edf 603d 43e8 96bc 0e20 713d
00000040: bc78 693d 2d19 453d 3763 4d3d dbb8 983d
00000050: da10 c33c b621 163d cc41 113d 6aa0 e03c
00000060: cd60 853d 3fca 2e3d 6c9d 6ebb ed29 0d3d
00000070: 8c50 353d 5475 f73c e57e ce3c 3886 5cbc
00000080: d03b 0bbd f4ab bbb9 95c2 b53c 3a2e 55bd
00000090: 3d06 c13c 6b3b be3b da26 3f3d 6213 0b3d
000000a0: 77a3 c73c a56d 3e3d 4810 a3bb 2717 073c
000000b0: d99f ab3c 4025 3b3d 25fb 12bd bf32 163c
000000c0: fd3c 323d 6975 603d 3d6b 4dbc 8a3a 0ebd
000000d0: 578d fa3c 36a8 363d c3e1 633c 3d21 d23c
000000e0: e3bb 0c3d 71fe 973c 4ed3 503d c092 fc3c
000000f0: 0174 8c3c 232b 8a3d 081a f03c a834 fa3c
00000100: 1271 b73c 5f18 03bc c91c be3c d8b0 973d
00000110: d31e 133d 168a 2c3d 4ce5 043d 80cf 7e3c
00000120: d458 123d 9ee4 b03b c481 063d 0643 2c3d
00000130: 3c31 403d 9a7d c7bc c861 173d 3793 4a3d
00000140: 1ba2 5c3d 1372 603d f4d9 953c f2e1 103d
00000150: 7bdc 573c 7926 1e3d 4aa4 883d 7cb5 5d3d
00000160: d67b 3bbb 6a71 8c3d 31bc 783c f2fa 91ba
00000170: 8f75 97bc 4118 cf3c 9876 11bc d8dc 5d3b
00000180: 156c ca3c a58d 04bd 23dd 1f3d dcdd 093d
00000190: 503f ac3c 8be4 433d 647c 823d 82fa f9bc
000001a0: e53b 71bb 86a3 4ebd 8c83 373d f900 b1ba
000001b0: 91c1 ad3c 728a dc3c 201e 8b3d 5b06 ea3c
000001c0: 5416 c0bb 4b39 39bd b5db 043d aac1 bf3b
000001d0: 5127 e03c 03bf 1cbc 1680 cbbc d4d9 a23c
000001e0: 6d05 e83b cb6a 653d 4d78 8b3d 062b 9e3c
000001f0: 66c1 9c3d 5a64 1d3c d0d0 dc3c ecf5 7c3d
00000200: 0ead 913c 2335 9a3d 8dc4 6c3d 45e0 f93b
00000210: d282 8a3d 3bfc c53c 07fa 9e3c bedf a23c
00000220: 357e 6e3b 81ea 343d e649 8c3d 4220 1ebd
00000230: 669e 1a3d 3edd 973b 3f94 183d 1ac4 5b3d
00000240: db45 7a3d a283 8ebc 4751 873d 6f2a 833d
00000250: 4658 6c3d 5151 9b3d d4ee 1f3d ac08 853d
00000260: 4efa 1d3d b2b1 e83b e8e5 1ebd 75b7 0b3c
00000270: 8ca7 1abd 9eb5 d53c 1771 833c 2cc1 24bd
00000280: 4de5 be3c 8658 8f3d 35aa 9c3d b9d8 463c
00000290: 32f8 5e3c 4f81 913d e9b1 093d 8cd9 9e3c
000002a0: c02c 593d 9e03 343d 7bd5 923d 3869 ecbc
000002b0: f796 893c 059f c43c c311 173d 8f46 783d
000002c0: c296 373d 4117 b23c da59 803d d900 233d
000002d0: 8712 e13c 6b4e 073c 7159 923d e600 9f3d
000002e0: b841 d53c 777e 393d 911d a73d 9629 25bd
000002f0: 1386 783d 8ceb 9ebc a347 073d a77c a83d
00000300: 96b0 3f3c 5d1b 9d3d 5abc 7d3d b6ab a03d
00000310: 03a5 9c3d 6576 74bc ec1b 893d 1031 8b3b
00000320: 1a4a 183d daac 213d a291 a93d b78c babc
00000330: affc 323d e547 26bd cb8d 03bc 33a6 743d
00000340: eb63 4d3d 62bd 343d c3d7 173d b3ee 873b
00000350: 8607 213d 1d49 763b 7c9d a13d a297 0a3d
00000360: dadc e33c 2774 e53c 4d7a 2c3d a7ab 5d3c
00000370: 19a7 383d 22ed 163d 7a84 953d 3f5c 303d
00000380: 4ee3 473c d5dd 193d 91f8 843d 6b6b 2c3c
00000390: ba07 01bd 9e85 9c3b 3c17 0abc 1e13 473d
000003a0: 481b 073d 7e75 593d af32 9b3b b2a7 993d
000003b0: c745 8e3c a4c3 053d c3e6 983d 76cf 2c3d
000003c0: ba4a 3e3d f775 1fbd e806 373c 62e3 d93a
000003d0: 3b70 953d 3375 c2bc 8aac 003c 6825 3a3d
000003e0: 0b27 873d d6b6 9b3c 86be 583c 0369 6a3d
000003f0: 4e4c 8c3d eb3c 013d 69a9 993d bb26 8a3d

fc2.weight f4 [128, 256]
0.02404772 0.052640744 -0.008034125 -0.0701113 0.049061816 0.0022186348 0.034025997 0.078518346
0.046625156 -0.061243895 0.0057450454 -0.027096368 0.025587926 0.04229051 -0.07735071 0.06608974
0.06573627 0.028870866 0.007661454 -0.004102873 -0.03429432 -0.02706874 0.0015943267 -0.013991864
0.09985729 -0.00651 -0.004007426 0.010132232 0.07076818 -0.060486387 0.015959766 -0.061408672
-0.024891501 -0.02193817 -0.03400572 -0.0056923567 0.048586346 0.09595461 -0.006610684 0.001740475
-0.04146301 0.028404605 -0.03680288 -0.0017710314 0.08893707 0.07218881 0.027141804 0.045261577
0.012427712 0.0012531163 -0.065997176 -0.028129498 0.015097813 0.018407501 0.092374116 0.03316309
0.07464872 -0.031034041 0.0029728934 0.060951546 -0.015659273 0.09314976 0.069800444 0.059482124
-0.018751036 -0.06977264 0.019192686 0.011004919 0.06848808 0.05102477 0.038580686 0.013024241
0.016746925 -0.013962289 -0.02933743 -0.035928242 -0.06268062 -0.030953519 -0.004660284 0.07826817
0.023362722 0.007980807 0.013252052 0.011684555 -0.06761207 -0.027200883 0.08929413 0.04026948
-0.044660114 0.0014064764 -0.01963941 -0.015635833 0.03850446 0.06438518 -0.008599624 0.031927634
0.041025307 -0.021353487 0.07289995 0.05873621 0.09854994 0.05265169 0.06198607 -0.067262076
-0.0038192798 -0.023589257 -0.034631524 -0.022427982 -0.046822384 0.087458745 -0.03369996 -0.015692707
-0.008730079 0.027040416 0.054632213 0.10517258 -0.074167825 0.031286508 -0.084192194 0.10014622
0.0771845 0.02706681 -0.014456314 -0.007196443 0.05761711 0.081136815 -0.017611234 0.029306391
-0.024310945 0.10136986 -0.0025042547 0.030323898 0.0048170285 0.022797467 0.10717348 0.032874133
0.059352543 0.06002274 0.073974535 -0.01568369 0.031849787 -0.03056288 0.05301375 0.0023875416
0.09509615 0.036329348 0.09312731 0.078448 -0.0044064904 -0.031157376 -0.03476555 0.047366835
-0.016797764 -0.0477385 -0.03733535 0.0051255114 0.022027463 -0.013827218 0.094229676 -0.039515797
-0.047307316 -0.0010523945 0.006673546 0.002297347 -0.038593423 0.022299716 -0.03790678 0.0047736964
-0.025438694 0.08086681 0.109820575 -0.06890679 0.058480524 0.07111515 0.036840804 0.05600352
-0.00115303 -0.06630186 0.03238501 0.08609323 0.064902686 0.09090586 -0.007111477 0.032474633
-0.031593528 -0.018998262 0.01374519 -0.018252913 -0.024813456 -0.04730665 -0.061259013 0.04641443
0.0259966 0.08439429 0.046983052 0.07589572 0.10265665 -0.01980071 0.090551615 -0.00053861225
0.035488166 -0.02228116 0.075356975 0.03411411 0.098617636 0.021072915 0.013157468 0.09858853
0.10384797 0.036296867 0.08800082 0.026880732 0.09196374 -0.025358144 0.06916464 0.024727568
0.045291614 -0.019907173 -0.014297829 0.03212285 0.07153465 0.0703055 -0.0019764332 -0.008829875
0.029882334 0.06354188 0.0026352133 0.09091385 0.005658889 -0.08002002 0.020804571 -0.05854418
0.02178869 0.07219482 0.05066898 -0.005747466 -0.086179376 0.049809244 0.07356761 0.005244929
0.05832024 -0.017169954 -0.038107518 0.068040855 0.072783574 -0.061659753 0.026006095 0.05790583
0.026007477 -0.007861049 -0.022111058 -0.0064245784 0.055085324 0.03751097 0.023380408 0.057127602
00000000: b9ff c43c d29d 573d 90a1 03bc 8396 8fbd
00000010: 0bf5 483d 8466 113b d85e 0b3d 3ace a03d
00000020: 05fa 3e3d e1da 7abd ef40 bc3b 34f9 ddbc
00000030: c59d d13c d038 2d3d 0d6a 9ebd 0f5a 873d
00000040: bda0 863d 9882 ec3c ef0c fb3b 6571 86bb
00000050: 3378 0cbd 43bf ddbc baf8 d03a 223e 65bc
00000060: fb81 cc3d d751 d5bb ba50 83bb a901 263c
00000070: e8ee 903d 93c0 77bd 0ebe 823c a987 7bbd
00000080: 43e9 cbbc adb7 b3bc 9549 0bbd f386 babb
00000090: 7a02 473d da83 c43d 709e d8bb a620 e43a
000000a0: 1ed5 29bd c6b0 e83c 9ebe 16bd f421 e8ba
000000b0: a324 b63d bad7 933d 7d58 de3c 3464 393d
000000c0: 9a9d 4b3c 9b3f a43a 8729 87bd d56f e6bc
000000d0: d15c 773c 54cb 963c a42e bd3d 05d6 073d
000000e0: 6ee1 983d 1a3b febc e0d4 423b 54a8 793d
000000f0: e047 80bc 4dc5 be3d 89f3 8e3d 87a3 733d
00000100: c69b 99bc f5e4 8ebd fb39 9d3c fa4d 343c
00000110: 7a43 8c3d 59ff 503d c806 1e3d a063 553c
00000120: d930 893c 16c2 64bc 0d55 f0bc 7e29 13bd
00000130: b25e 80bd 3c92 fdbc 4cb5 98bb 104b a03d
00000140: 2e63 bf3c eec1 023c 221f 593c 9370 3f3c
00000150: 3278 8abd 63d4 debc d7df b63d 9cf1 243d
00000160: 86ed 36bd 8459 b83a d4e2 a0bc b816 80bc
00000170: dab6 1d3d 61dc 833d 70e5 0cbc 8dc6 023d
00000180: 270a 283d 82ed aebc 924c 953d 6195 703d
00000190: 8dd4 c93d 4ca9 573d 1be5 7d3d b3c0 89bd
000001a0: e24c 7abb 423e c1bc c9d9 0dbd e3ba b7bc
000001b0: d4c8 3fbd 921d b33d f808 0abd fe8d 80bc
000001c0: 9b08 0fbc dd83 dd3c 07c6 5f3d b964 d73d
000001d0: 4de5 97bd 4826 003d f56c acbd 7619 cd3d
000001e0: e812 9e3d 37bb dd3c 2dda 6cbc 24d0 ebbb
000001f0: ebff 6b3d 0f2b a63d 6f45 90bc f513 f03c
00000200: bf27 c7bc 009b cf3d 6c1e 24bb d369 f83c
00000210: 2ad8 9d3b c1c1 ba3c c57d db3d 07a7 063d
00000220: a71b 733d 68da 753d f67f 973d 157b 80bc
00000230: ec74 023d 015f fabc f224 593d 4d78 1c3b
00000240: c5c1 c23d 15ce 143d 88b9 be3d 58a9 a03d
00000250: 5264 90bb c13d ffbc 5266 0ebd ba03 423d
00000260: 779b 89bc 7289 43bd f4ec 18bd e8f3 a73b
00000270: f072 b43c 8e8b 62bc 7dfb c03d 51db 21bd
00000280: 51c5 41bd 80f0 89ba c3ad da3b 168f 163b
00000290: 2314 1ebd e5ad b63c 2444 1bbd ab6c 9c3b
000002a0: cf64 d0bc 809d a53d 9ce9 e03d 011f 8dbd
000002b0: 4689 6f3d d2a4 913d 62e6 163d f263 653d
000002c0: 4421 97ba 45c9 87bd 25a6 043d a651 b03d
000002d0: b3eb 843d da2c ba3d 6507 e9bb 1f04 053d
000002e0: 3768 01bd 3ea2 9bbc 8133 613c 2287 95bc
000002f0: 9745 cbbc 9ec4 41bd bbea 7abd 0f1d 3e3d
00000300: d2f6 d43c ead6 ac3d 4d71 403d 376f 9b3d
00000310: a63d d23d 1935 a2bc 2073 b93d a831 0dba
00000320: 0a5c 113d fb86 b6bc c254 9a3d 3dbb 0b3d
00000330: 0bf8 c93d 1ba1 ac3c 6c92 573c c9e8 c93d
00000340: 3fae d43d 06ac 143d c639 b43d fb34 dc3c
00000350: 7c57 bc3d e2bb cfbc 31a6 8d3d 7891 ca3c
00000360: b383 393d 5e14 a3bc 7141 6abc 4093 033d
00000370: c280 923d 54fc 8f3d 0c87 01bb 2eab 10bc
00000380: cccb f43c 3f22 823d 8bb3 2c3b 0a31 ba3d
00000390: 346e b93b 89e1 a3bd 596e aa3c 06cc 6fbd
000003a0: 327e b23c e1da 933d 478a 4f3d 3d55 bcbb
000003b0: d07e b0bd c704 4c3d 9daa 963d a7dd ab3b
000003c0: 34e1 6e3d 01a8 8cbc a116 1cbd 0159 8b3d
000003d0: 8e0f 953d f08e 7cbd bc0a d53c aa2e 6d3d
000003e0: a20d d53c a1cb 00bc 4022 b5bc 4585 d2bb
000003f0: 26a1 613d 1aa5 193d 4588 bf3c a2fe 693d

fc2.bias f4 [128]
0.082760826 0.032145035 0.07890034 0.0624955 0.026831971 0.07612118 0.08483255 0.050269578
0.050059803 0.08286189 0.0500481 -0.024435112 0.012818454 -0.05016296 0.04603927 -0.06117645
0.022542505 -0.020189919 0.058036376 -0.008474779 0.0053706816 -0.04496333 0.015150877 -0.042273425
0.027240606 0.048157103 0.072260305 -0.030480437 0.06557363 -0.053345833 -0.04696713 0.04174288
0.013716306 0.0891484 0.06381093 0.048406273 0.0754234 0.055424992 0.020189276 -0.032034814
0.050933134 -0.06360792 0.043419424 0.03377016 0.0399542 -0.008027102 -0.04717861 0.02899247
0.07262829 0.011220324 0.043237805 0.035611257 -0.022142978 0.05406941 -0.023184039 -0.03144425
0.057540454 -0.02997627 0.05938681 0.07333767 0.05803945 -0.034091044 -0.018431516 -0.018673176
0.009858586 0.017745193 0.08305018 -0.03215965 -0.04988969 -0.045354757 0.04630244 0.007769158
0.025387254 0.007672887 0.03672146 -0.010791904 -0.0008720393 0.058396555 0.04697682 0.046631712
0.046932586 0.051307276 0.038743906 0.037305407 0.033021834 0.06779531 0.08328001 0.031456348
0.07792157 0.064013444 0.07345853 0.029402804 0.082963884 0.08007435 -0.0236062 0.0189802
0.021399193 -0.056371253 -0.04439709 -0.05369905 0.0734551 0.050085805 -0.0064611263 -0.037345015
-0.038070224 0.04633039 0.061146215 0.008659299 0.044308268 0.07502567 0.025075478 0.06359868
0.009678921 0.0539349 0.06671311 -0.010929154 0.07839776 0.05843495 -0.029964577 0.04846596
0.011185797 0.074756145 -0.035814974 -0.0033373751 -0.050233502 -0.04657212 -0.00545428 -0.018243361
00000000: 827e a93d 83aa 033d 8096 a13d 48fb 7f3d
00000010: b9ce db3c 6ce5 9b3d b0bc ad3d 79e7 4d3d
00000020: 820b 4d3d 7fb3 a93d 3dff 4c3d 252c c8bc
00000030: 7e04 523c ad77 4dbd ac93 3c3d 2894 7abd
00000040: 0fab b83c 5465 a5bc 8db7 6d3d cdd9 0abc
00000050: 8bfc af3b 782b 38bd 623b 783c e626 2dbd
00000060: b127 df3c 6240 453d 36fd 933d 1cb2 f9bc
00000070: 784b 863d 2981 5abd 9b60 40bd 95fa 2a3d
00000080: 5bba 603c 7093 b63d 4eaf 823d a845 463d
00000090: 9577 9a3d 5105 633d fb63 a53c f036 03bd
000000a0: 439f 503d df44 82bd 91d8 313d 9452 0a3d
000000b0: 04a7 233d 1b84 03bc 5c3e 41bd 9e81 ed3c
000000c0: 24be 943d 73d5 373c 201a 313d 1cdd 113d
000000d0: 3165 b5bc e377 5d3d 74ec bdbc b0cb 00bd
000000e0: 8aaf 6b3d cb90 f5bc 953f 733d 0f32 963d
000000f0: c6ba 6d3d 0da3 0bbd b1fd 96bc 7df8 98bc
00000100: e885 213c 5e5e 913c 3616 aa3d d6b9 03bd
00000110: 2259 4cbd e9c5 39bd a1a7 3d3d 6c94 fe3b
00000120: eef8 cf3c d76c fb3b 3e69 163d 87d0 30bc
00000130: 9199 64ba 3a31 6f3d c46a 403d e500 3f3d
00000140: 623c 403d 9427 523d eeb1 1e3d 8ecd 183d
00000150: e741 073d 44d8 8a3d b68e aa3d 5fd8 003d
00000160: 5895 9f3d 7b19 833d 6d71 963d 26de f03c
00000170: f8e8 a93d 05fe a33d ca61 c1bc 5d7c 9b3c
00000180: 5c4d af3c 8be5 66bd b9d9 35bd 89f3 5bbd
00000190: a16f 963d c626 4d3d dbb7 d3bb 16f7 18bd
000001a0: 86ef 1bbd efc4 3d3d 7474 7a3d bcdf 0d3c
000001b0: 967c 353d 0fa7 993d 176b cd3c 0640 823d
000001c0: 5694 1e3c d7ea 5c3d e2a0 883d 3210 33bc
000001d0: 018f a03d 7c59 6f3d 4678 f5bc 3e84 463d
000001e0: a244 373c c019 993d b9b2 12bd ddb7 5abb
000001f0: a5c1 4dbd 68c2 3ebd d1b9 b2bb 1a73 95bc

fc3.weight f4 [3, 128]
-0.09171275 -0.11864674 -0.099926665 -0.06521188 -0.057677407 -0.12365715 0.0786596 0.04497796
-0.09586442 0.08102069 -0.09791007 -0.038919404 -0.11337519 0.07628542 0.10716328 0.035263434
-0.074684165 0.07455981 0.066109754 -0.11280253 0.048565406 -0.053510685 0.05685146 0.06378194
0.004699317 0.02183033 -0.11004903 0.010285071 0.10652281 0.061027355 -0.042811368 0.08348244
0.049301464 0.009455661 0.07231108 0.111716926 -0.11274739 -0.08721363 -0.05688348 -0.05643819
-0.013562269 0.026931662 0.076409474 -0.115687795 -0.08833977 -0.106245905 0.014469601 0.06743918
-0.1286149 -0.011827853 -0.105533205 -0.017837482 -0.106981136 -0.06786454 0.052672658 -0.1194806
0.07707611 0.06455538 -0.12397956 -0.062066052 -0.124058 -0.013240492 0.046995066 -0.00414821
-0.058004323 -0.08775856 -0.12228054 0.01589037 0.01061631 -0.064034946 -0.107854724 -0.11762692
-0.075927906 0.039647385 -0.07573266 0.0733503 0.0828818 -0.12886749 -0.03295759 0.12579261
-0.08506622 0.069441974 -0.09949992 0.06760955 0.04591113 0.06903614 0.10599674 -0.09829733
0.035288926 -0.04870493 0.012264378 -0.08686931 0.11283309 0.0847007 0.030525329 0.067643575
-0.074718766 0.058128327 0.0959288 0.069868006 0.1146918 -0.003216629 0.058858495 0.10202355
-0.08805302 -0.10769668 0.09488164 0.07294367 0.014344205 0.07221889 0.12650636 -0.119629756
0.06223492 -0.12518238 -0.06749423 -0.06932516 0.043981835 -0.097544834 -0.037441432 0.014608568
-0.12039924 -0.0913469 0.04477523 0.0361879 0.00961218 -0.029298848 0.017798528 -0.063432194
-0.10466319 -0.13174069 0.08715726 -0.08768159 0.040463608 0.105917685 0.0056571728 0.052996356
0.032122716 -0.050501056 0.020956604 0.086578056 -0.044225246 0.05922975 -0.064105876 -0.06659833
-0.07243987 0.04642765 -0.10695911 0.032571197 -0.09295051 0.028787745 -0.12645216 0.04667013
0.08158096 0.06626674 -0.002882888 0.06834492 -0.12044154 0.017151788 -0.0152363395 -0.09219585
0.075746864 -0.11130226 0.10462831 0.106390156 0.10732171 0.012476225 0.09796103 0.047017463
0.1035361 -0.04211239 -0.03325476 -0.040361587 -0.07548279 -0.101056 -0.025080599 -0.03750879
0.06486342 0.06959471 0.097522214 0.023714958 -0.022851104 -0.07297026 0.041329212 -0.039484095
-0.070869684 -0.02785428 0.0032952256 0.10829883 0.03896664 0.026068524 -0.028372088 0.037410792
-0.040512398 -0.085171 0.027538866 -0.06803575 -0.03139197 0.05251637 0.06305406 0.028315566
-0.08178125 0.042849865 0.06268164 -0.040221248 0.11503281 0.044053756 0.10339343 -0.08167662
0.085352145 -0.12756665 -0.09313873 -0.11230991 0.09293721 -0.12858912 -0.058464076 -0.077702925
-0.104719535 -0.05290329 -0.13137631 0.10259517 0.112121165 0.012552719 0.05160363 -0.043638214
-0.08522792 0.02996722 0.06582183 -0.07596677 -0.03231119 -0.115533724 -0.057209283 0.08127376
0.047283817 -0.053660583 -0.01995769 -0.060683724 0.12349878 -0.101187065 -0.08874701 -0.07454365
-0.0758556 0.048814047 0.092534736 0.060746167 -0.07195726 -0.066790864 0.050753653 0.019370796
0.11464981 -0.083310686 -0.05334066 -0.024535121 0.011047492 -0.017433904 -0.09078047 0.03310235
00000000: e5d3 bbbd 10fd f2bd 5aa6 ccbd ce8d 85bd
00000010: 253f 6cbd f63f fdbd 4918 a13d cf3a 383d
00000020: 9154 c4bd 2dee a53d 1385 c8bd f469 1fbd
00000030: 4031 e8bd 883b 9c3d 6c78 db3d 6470 103d
00000040: 03f4 98bd d0b2 983d 8d64 873d 0305 e7bd
00000050: 85ec 463d 052e 5bbd 14dd 683d 1ba0 823d
00000060: bafc 993b 85d5 b23c 6361 e1bd b782 283c
00000070: a228 da3d d2f7 793d f95a 2fbd d7f8 aa3d
00000080: 55f0 493d ebeb 1a3c d517 943d d8cb e43d
00000090: 1be8 e6bd 0f9d b2bd a7fe 68bd bb2b 67bd
000000a0: 4734 5ebc ca9f dc3c 927c 9c3d b9ed ecbd
000000b0: 7beb b4bd 7497 d9bd e811 6d3c 8e1d 8a3d
000000c0: a0b3 03be 9cc9 41bc cb21 d8bd e91f 92bc
000000d0: ed18 dbbd 90fc 8abd 49bf 573d 3fb2 f4bd
000000e0: 14da 9d3d 9c35 843d ffe8 fdbd f938 7ebd
000000f0: 1f12 febd a6ee 58bc e67d 403d b5ed 87bb
00000100: f195 6dbd c3ba b3bd 386e fabd 852c 823c
00000110: 08f0 2d3c c124 83bd f0e2 dcbd 62e6 f0bd
00000120: 1780 9bbd 4c65 223d ba19 9bbd af38 963d
00000130: efbd a93d d7f5 03be 8afe 06bd c7cf 003e
00000140: 3337 aebd 9837 8e3d 9dc6 cbbd e076 8a3d
00000150: 4f0d 3c3d d262 8d3d d214 d93d 1c50 c9bd
00000160: 1f8b 103d d27e 47bd 88f0 483c 89e8 b1bd
00000170: 0915 e73d 9077 ad3d 4110 fa3c b788 8a3d
00000180: 2706 99bd f817 6e3d 5276 c43d f516 8f3d
00000190: 89e3 ea3d 14ce 52bb 9b15 713d b9f1 d03d
000001a0: 2455 b4bd 1490 dcbd 4e51 c23d 7e63 953d
000001b0: f503 6b3c 7fe7 933d e28a 013e 7200 f5bd
000001c0: 0bea 7e3d cf2f 00be 6a3a 8abd 59fa 8dbd
000001d0: 4c26 343d 96c5 c7bd 305c 19bd c658 6f3c
000001e0: e093 f6bd 1514 bbbd 3b66 373d c339 143d
000001f0: 687c 1d3c 2304 f0bc 38ce 913c bde8 81bd
00000200: a859 d6bd 08e7 06be 817f b23d 6892 b3bd
00000210: 2bbd 253d 5feb d83d ce5f b93b b512 593d
00000220: 1c93 033d 32da 4ebd 2fad ab3c d64f b13d
00000230: 8825 35bd e59a 723d f149 83bd b564 88bd
00000240: 5b5b 94bd eb2a 3e3d 610d dbbd 6069 053d
00000250: d65c bebd 47d4 eb3c ad7c 01be 2e29 3f3d
00000260: eb13 a73d dbb6 873d d6ee 3cbb 6cf8 8b3d
00000270: 0eaa f6bd e881 8c3c d7a1 79bc 2ed1 bcbd
00000280: 2c21 9b3d 70f2 e3bd 5e47 d63d 15e3 d93d
00000290: 7ccb db3d 1569 4c3c cb9f c83d 6295 403d
000002a0: bc0a d43d 0b7e 2cbd 2536 08bd 3152 25bd
000002b0: b996 9abd 73f6 cebd d475 cdbc d1a2 19bd
000002c0: 1dd7 843d ac87 8e3d bab9 c73d df45 c23c
000002d0: 3d32 bbbc 6f71 95bd d248 293d 13ba 21bd
000002e0: 2024 91bd a92e e4bc b6f4 573b c7cb dd3d
000002f0: 7c9b 1f3d a88d d53c 956c e8bc 0f3c 193d
00000300: 54f0 25bd 226e aebd 3099 e13c 5456 8bbd
00000310: de94 00bd 681b 573d 7d22 813d 0cf6 e73c
00000320: ee7c a7bd 5783 2f3d 3b5f 803d 09bf 24bd
00000330: 5296 eb3d b671 343d efbf d33d 1246 a7bd
00000340: 1bcd ae3d d5a0 02be 85bf bebd bd02 e6bd
00000350: dd55 be3d deac 03be 0778 6fbd b622 9fbd
00000360: 3277 d6bd 1fb1 58bd 8387 06be 6b1d d23d
00000370: c89f e53d eba9 4d3c 545e 533d fcbd 32bd
00000380: fa8b aebd d17d f53c 98cd 863d 7794 9bbd
00000390: bd58 04bd f29c ecbd 4854 6abd db72 a63d
000003a0: adac 413d 33cb 5bbd 4f7e a3bc 7f8f 78bd
000003b0: eeec fc3d 2a3b cfbd fec0 b5bd 57aa 98bd
000003c0: 2e5a 9bbd 3df1 473d da82 bd3d f9d0 783d
000003d0: 545e 93bd a6c9 88bd 10e3 4f3d 81af 9e3c
000003e0: 85cd ea3d cb9e aabd bc7b 5abd e1fd c8bc
000003f0: 8a00 353c 8cd1 8ebc 1ceb b9bd 5496 073d

fc3.bias f4 [3]
-0.03514156 -0.07953672 0.050799396
00000000: 99f0 0fbd 26e4 a2bd 0713 503d
