face_classifier_2_Visual_30Epochs_2.pth (torch, 661408 bytes, 6 tensors)

fc1.weight f4 [256, 512]
-0.06738691 0.020886905 0.010302212 0.04921723 0.023560585 -0.005508564 -0.008697031 0.00059499906
-0.012034281 0.0073852628 0.03905376 -0.011360239 0.022198487 -0.028364541 -0.03339124 -0.035126638
-0.05687832 0.007302788 -0.07109059 -0.06346177 -0.02071419 -0.0029352321 0.019973917 0.01653155
0.011344172 1.9447529e-05 -0.054902196 -0.05154329 0.008694751 0.02800749 0.0014399131 -0.004429762
0.044609535 -0.04809635 0.05359542 0.036616772 0.011360516 -0.014167326 -0.003977077 -0.03650518
0.05608999 0.048724446 0.017056867 -0.001548162 0.030325253 0.025456341 0.027560899 -0.022848858
-0.047673043 0.007299608 -0.012406068 -0.007100884 0.021111697 -0.013728875 0.010787932 0.009814795
0.014084088 -0.05893439 -0.044771653 0.009889662 -0.004282144 -0.010161953 0.049272906 -0.060521577
-0.023594055 -0.03834955 0.00020535453 0.043533765 -0.0044663977 0.045308087 -0.014144561 0.055530053
0.011181032 -0.07574977 0.020925587 -0.019340752 -0.008292131 0.015736863 -0.031015318 0.0076687187
-0.013745451 -0.05591531 -0.024023311 -0.0005114074 0.011700976 0.007797376 -0.047138117 -0.00041948853
0.006476011 -0.06402173 -0.05263904 -0.018352335 -0.02282734 -0.0023816882 -0.03171497 -0.06827723
-0.0052544577 -0.057620265 -0.045230303 0.03707138 -0.07023264 -0.05352074 0.015484954 0.01605581
0.06454416 0.019825123 -0.04322521 -0.049941868 -0.0024721972 0.0164979 0.015684726 0.048303727
0.006409788 -0.043206945 0.019776354 -0.014668301 0.025658991 -0.005128911 -0.0006996705 0.010654174
-0.03948391 -0.008791144 0.026513705 -0.013993148 0.052127644 0.008424918 -0.04739945 -0.008312361
0.047159348 0.054497436 0.042374667 -0.051110677 -0.0006801151 0.005900507 0.020888664 0.06248987
-0.044367317 0.04824379 -0.033535186 -0.03142499 -0.052092962 -0.010315036 -0.0005388286 -0.053273804
-0.023849886 0.044715963 0.011235298 -0.03316373 -0.022115035 0.06727741 -0.056147248 -0.05121752
-0.0356015 -0.005732801 -0.005565418 -0.020986253 -0.046840176 0.014049667 0.00033452874 -0.057003263
-0.0075894725 0.010707383 -0.058921877 -0.018678043 0.0012949685 -0.023509469 0.0001676277 0.057691544
0.04895199 0.0017601163 0.0458546 0.009373247 -0.05306748 0.010947525 -0.020134771 0.046637494
0.029714808 0.015613466 -0.038860615 -0.05410176 -0.027094193 0.049388755 0.034339417 -0.015526256
0.056991618 -0.004010662 0.063471146 -0.02048412 -0.036218528 -0.053230286 -0.06143339 0.005198025
0.05058774 0.01483897 0.030662166 -0.012044212 0.036252942 -0.062713355 -0.009350384 0.02621263
0.001719074 0.015562584 0.023890775 -0.047124136 -0.06344238 0.026487766 -0.0018309455 -0.027989766
-0.0365558 0.0501949 -0.007419635 -0.016839432 -0.059480283 -0.018544048 0.009518322 -0.0010039945
0.0051908903 -0.04773709 -0.009716634 -0.04284347 0.048557784 0.04766218 -0.013496304 0.033087965
-0.031628907 -0.01774193 -0.0021972666 -0.04445025 0.045423478 0.033207413 -0.02932431 -0.017192658
0.030024536 0.009739474 0.011581471 0.060654674 -0.03137323 0.05641216 0.07548515 -0.00025468552
-0.03763831 -0.010297396 -0.012724493 -0.023241092 -0.0004736645 -0.048607923 -0.0017462054 0.011979554
0.011259956 -0.03636766 0.05244019 0.059726484 -0.06099485 0.051107787 -0.00533255 0.022176454
00000000: 2602 8abd 041b ab3c 9cca 283c 0298 493d
00000010: 2102 c13c 2f81 b4bb fe7d 0ebc b6f9 1b3a
00000020: 6f2b 45bc 1300 f23b d6f6 1f3d 4c20 3abc
00000030: 9ad9 b53c c15c e8bc 41c5 08bd f3e0 0fbd
00000040: 3ef9 68bd 3a4c ef3b f197 91bd 3ff8 81bd
00000050: ceb0 a9bc 065d 40bb 57a0 a33c 2c6d 873c
00000060: e8dc 393c 4023 a337 20e1 60bd 0f1f 53bd
00000070: 6e74 0e3c f76f e53c 77bb bc3a 8927 91bb
00000080: 7db8 363d ae00 45bd df86 5b3d 78fb 153d
00000090: 7521 3a3c 121e 68bc 2452 82bb 7586 15bd
000000a0: 9ebe 653d 4993 473d d8ba 8b3c b2eb caba
000000b0: aa6c f83c d189 d03c 65c7 e13c 872d bbbc
000000c0: cf44 43bd 8d31 ef3b d242 4bbc 88ae e8bb
000000d0: 70f2 ac3c 13ef 60bc debf 303c 3cce 203c
000000e0: f2c0 663c 3065 71bd 7b62 37bd 4008 223c
000000f0: 3a51 8cbb 527e 26bc 63d2 493d 79e5 77bd
00000100: 5248 c1bc 6b14 1dbd 7054 5739 7650 323d
00000110: dc5a 92bb f994 393d 97be 67bc 7b73 633d
00000120: a630 373c b222 9bbd 236c ab3c 7f70 9ebc
00000130: b8db 07bc 98ea 803c d613 febc e049 fb3b
00000140: 9a34 61bc 7407 65bd 89cc c4bc f80f 06ba
00000150: 73b5 3f3c 2181 ff3b e613 41bd ccee dbb9
00000160: b834 d43b d31d 83bd 099c 57bd a357 96bc
00000170: 6700 bbbc 1916 1cbb 8ee7 01bd efd4 8bbd
00000180: 962d acbb 3a03 6cbd 6943 39bd 29d8 173d
00000190: 21d6 8fbd 9038 5bbd 9bb4 7d3c 7987 833c
000001a0: bb2f 843d 4c68 a23c eb0c 31bd d88f 4cbd
000001b0: 9604 22bb 9b26 873c 417d 803c 21da 453d
000001c0: 3309 d23b c4f9 30bd 0502 a23c 5053 70bc
000001d0: ce32 d23c 6d10 a8bb 186a 37ba d88e 2e3c
000001e0: e1b9 21bd bb08 10bc 4533 d93c 8443 65bc
000001f0: cc83 553d ab08 0a3c ed25 42bd 9230 08bc
00000200: 292a 413d b438 5f3d 0f91 2d3d 6e59 51bd
00000210: c049 32ba 0a59 c13b b41e ab3c 61f5 7f3d
00000220: 81ba 35bd 489b 453d 315c 09bd 7eb7 00bd
00000230: 6e5f 55bd 6600 29bc 2d40 0dba a235 5abd
00000240: d660 c3bc 1628 373d 4114 383c b1d6 07bd
00000250: 972a b5bc bdc8 893d a8fa 65bd 76c9 51bd
00000260: e1d2 11bd 38da bbbb 1c5e b6bb 5deb abbc
00000270: 7cdb 3fbd 9330 663c b063 af39 417c 69bd
00000280: 1cb1 f8bb 056e 2f3c 1158 71bd b202 99bc
00000290: efbb a93a ee96 c0bc 38c5 2f39 f84d 6c3d
000002a0: e281 483d b4b3 e63a 08d2 3b3d 3f92 193c
000002b0: 495d 59bd 3f5d 333c adf1 a4bc f506 3f3d
000002c0: 786c f33c 9fcf 7f3c 4f2c 1fbd cf99 5dbd
000002d0: a4f4 ddbc dd4b 4a3d 7da7 0c3d d661 7ebc
000002e0: 0b70 693d df6b 83bb 29fd 813d 50ce a7bc
000002f0: e159 14bd 0008 5abd 94a1 7bbd 3254 aa3b
00000300: 1735 4f3d 271f 733c 392f fb3c 1655 45bc
00000310: f77d 143d dc6f 80bd 5a32 19bc dfbb d63c
00000320: 8d52 e13a 35fa 7e3c 96b6 c33c 3d05 41bd
00000330: 14ee 81bd dffc d83c 56fc efba cb4a e5bc
00000340: 89bb 15bd 2b99 4d3d 6920 f3bb d9f2 89bc
00000350: 99a1 73bd b0e9 97bc bcf2 1b3c 7798 83ba
00000360: 5818 aa3b f887 43bd 8432 1fbc a27c 2fbd
00000370: 87e4 463d 6b39 433d 9a1f 5dbc 3f87 073d
00000380: 508d 01bd 8657 91bc 0400 10bb 7711 36bd
00000390: f80d 3a3d 7f04 083d 8939 f0bc 9ed7 8cbc
000003a0: 04f6 f53c 5192 1f3c 36c0 3d3c 0971 783d
000003b0: 3781 00bd 7010 673d f597 9a3d 5087 85b9
000003c0: a12a 1abd 69b6 28bc 647a 50bc 1a64 bebc
000003d0: 2c56 f8b9 1a19 47bd eee0 e4ba e445 443c
000003e0: ae7b 383c 41f6 14bd 86cb 563d c2a3 743d
000003f0: bcd5 79bd 6656 513d acbc aebb 65ab b53c

fc1.bias f4 [256]
0.018387819 -5.0096773e-05 0.020940917 0.060625136 0.032339748 0.048004467 0.040942956 0.036178056
0.017506773 0.051177137 0.056499816 -0.008472294 -0.014357728 0.022512378 0.031181648 0.022371281
-0.050974764 -0.038288303 0.06287469 0.041335765 -0.008599816 -0.0030352138 0.040299542 -0.010117986
0.011385979 0.008574719 0.023442665 0.0549482 0.053446285 0.043323487 0.0017877225 0.062960096
-0.0066960603 0.021046925 0.035346888 0.023728037 0.064020894 0.056124356 0.028717985 -0.0053630797
0.04703234 0.0091993585 0.05289059 0.010517319 -0.04024367 -0.010241324 0.043407787 0.017825868
-0.014812777 0.043763164 0.06735212 0.034789 -0.045310657 -0.009733345 -0.022369297 -0.036793232
0.06074623 0.0061597237 0.008800656 0.012713503 0.043379143 -0.029815407 0.05045155 0.009071883
0.01198075 -0.00065992714 0.050218705 -0.040812444 0.008680722 0.023015652 0.02650735 0.006797606
0.05338282 -0.00083436177 0.0061612586 0.034212727 -0.023020724 0.047238328 0.049720854 0.002852394
0.054630615 0.057121664 0.0039725844 -0.03315911 0.011022004 0.0057605007 0.02805317 0.051877424
0.06581204 0.051068205 -0.034954093 -0.010321154 0.047975592 0.044226214 0.0034544969 0.010136681
0.074663326 -0.0047818725 0.050250683 0.03748509 -0.018556552 0.027991477 -0.012629685 0.0035850194
0.014326395 -0.013665893 0.032579936 0.004517945 0.024363792 0.0656342 0.039443165 0.058860917
0.04380646 0.038996153 0.059594963 0.034956742 0.06320493 0.06048229 0.009400661 0.01385919
0.025027284 0.0490874 -0.0030476046 0.056858707 0.04085204 0.044672288 0.044763435 -0.015120594
0.056436412 0.063450746 0.028277999 0.023692068 -0.012662804 0.049029224 0.063082896 -0.022902569
0.037443276 0.052783575 0.028058683 0.05012822 0.015694005 0.03188309 0.03563742 0.059618153
0.034636647 0.057227742 0.00016925496 0.051481154 0.037652716 0.004730192 0.04897916 0.0011170582
0.024394521 -0.04336707 0.026999503 0.0015451228 0.016028328 8.034735e-05 0.0036943199 0.031209985
-0.013178266 0.04404947 0.027376676 -0.016226064 0.015844014 -0.0011344446 -0.0045638354 0.06398477
0.037153695 0.055584155 0.062009096 0.054978058 0.050257716 0.010997094 0.053911377 0.035912275
0.039987262 0.0038235541 0.06375089 0.026391953 0.038274787 0.027450385 0.039561532 0.03048804
-0.0018632666 -0.007376671 0.044741467 0.05103867 0.044430766 0.0012821954 0.011422648 0.0050519896
0.019364536 0.035684783 0.0425328 -0.046171926 -0.005024993 0.049429227 0.019022042 -0.008267593
0.006625057 0.05529583 0.047454722 0.009858497 -0.012830911 -0.0006335266 0.031495646 0.03586228
0.043822527 -0.013675109 0.012887488 0.05417601 0.066418156 0.05169102 -0.047079034 0.030178314
0.012422401 0.031701267 0.0119824 -0.0027055827 0.015211954 0.062599756 0.05005392 -0.0030713968
-0.003365916 0.06350364 0.01765873 0.01980821 0.006254848 0.043515787 -0.041383922 0.02015352
-0.0057698335 -0.010928854 -0.0012609714 0.017420476 -0.016566595 0.062793344 0.06224071 -0.013703677
0.005126849 -0.0039139166 -0.0025568511 0.025273433 0.020961808 -0.039712556 0.040637445 0.00519037
-0.0026822784 0.016769886 0.058936223 0.0038644671 0.049341127 0.05648112 -0.020958817 -0.0013552981
00000000: 0da2 963c 001f 52b8 498c ab3c 1052 783d
00000010: af76 043d 55a0 443d cdb3 273d 712f 143d
00000020: 5d6a 8f3c 1e9f 513d 5a6c 673d 60cf 0abc
00000030: ad3c 6bbc e16b b83c a870 ff3c fa43 b73c
00000040: eaca 50bd 32d4 1cbd 72c4 803d b14f 293d
00000050: 3ee6 0cbc 70ea 46bb 2211 253d e9c5 25bc
00000060: 428c 3a3c fa7c 0c3c d50a c03c 5d11 613d
00000070: 7eea 5a3d f873 313d 0352 ea3a 39f1 803d
00000080: a06a dbbb 9a6a ac3c e6c7 103d 4d61 c23c
00000090: 631d 833d a7e2 653d fb41 eb3c c6bc afbb
000000a0: fca4 403d e8b8 163c cea3 583d d550 2c3c
000000b0: 8cd6 24bd 3acb 27bc 5dcc 313d 8e07 923c
000000c0: 4ab1 72bc 0141 333d e9ef 893d e97e 0e3d
000000d0: ab97 39bd 9c78 1fbc d13f b7bc 80b4 16bd
000000e0: 0ad1 783d 82d7 c93b a030 103c 4c4c 503c
000000f0: 54ae 313d 713f f4bc 49a6 4e3d 3ca2 143c
00000100: e84a 443c f6fe 2cba 21b2 4d3d f32a 27bd
00000110: 9639 0e3c 528b bc3c f125 d93c 74be de3b
00000120: f2a7 5a3d 12b9 5aba 62e4 c93b a522 0c3d
00000130: f595 bcbc fa7c 413d 18a8 4b3d 3bef 3a3b
00000140: 5ac4 5f3d 68f8 693d 742c 823b d9d1 07bd
00000150: a395 343c 95c2 bc3b c3cf e53c 6c7d 543d
00000160: 76c8 863d e52c 513d 062c 0fbd 0f1a 29bc
00000170: 0e82 443d 8c26 353d d764 623b 5214 263c
00000180: 16e9 983d 41b1 9cbb a9d3 4d3d f789 193d
00000190: e903 98bc 624e e53c bdec 4ebc a5f2 6a3b
000001a0: 41b9 6a3c e9e6 5fbc 8a72 053d 450b 943b
000001b0: 9396 c73c 396b 863d 288f 213d 2518 713d
000001c0: 676e 333d 6eba 1f3d d919 743d cd2e 0f3d
000001d0: 9671 813d 47bc 773d 3b05 1a3c a811 633c
000001e0: 0506 cd3c df0f 493d 52ba 47bb ade4 683d
000001f0: 7854 273d 4afa 363d dd59 373d 5ebc 77bc
00000200: de29 673d 77f2 813d 43a7 e73c de15 c23c
00000210: a677 4fbc ded2 483d 9b31 813d 2b9e bbbc
00000220: 1f5e 193d 9733 583d 53db e53c 4053 4d3d
00000230: b790 803c d897 023d 8bf8 113d 2a32 743d
00000240: 28df 0d3d a367 6a3d 087a 3139 e7dd 523d
00000250: bc39 1a3d baff 9a3b 5f9e 483d 416a 923a
00000260: 05d7 c73c aba1 31bd 102e dd3c b885 ca3a
00000270: d74d 833c 2880 a838 671c 723b 15ac ff3c
00000280: a7e9 57bc 386d 343d 0d45 e03c 86ec 84bc
00000290: 4ecb 813c a5b1 94ba 3a8c 95bb 720a 833d
000002a0: 792e 183d 36ac 633d 40fd 7d3d ac30 613d
000002b0: 09db 4d3d 282d 343c 2dd2 5c3d c018 133d
000002c0: afc9 233d 9894 7a3b d48f 823d f033 d83c
000002d0: 06c6 1c3d a1df e03c 460b 223d 0ec2 f93c
000002e0: da38 f4ba 00b8 f1bb d442 373d ed0d 513d
000002f0: 09fd 353d 570f a83a 0f26 3b3c 298b a53b
00000300: 60a2 9e3c 352a 123d e036 2e3d c61e 3dbd
00000310: b2a8 a4bb 4d76 4a3d 1dd4 9b3c cc74 07bc
00000320: 0217 d93b e17d 623d e25f 423d 8985 213c
00000330: be38 52bc 4013 26ba 9401 013d 53e4 123d
00000340: 407f 333d 900d 60bc 0b26 533c aae7 5d3d
00000350: 3e06 883d f7b9 533d f2d5 40bd 8338 f73c
00000360: 5487 4b3c 30d9 013d d451 443c 2550 31bb
00000370: 8f3b 793c 4d34 803d 5705 4d3d 7d49 49bb
00000380: b396 5cbb 320e 823d 0aa9 903c d444 a23c
00000390: 78f5 cc3b 9c3d 323d 3082 29bd ff18 a53c
000003a0: df10 bdbb f00e 33bc 2e47 a5ba 63b5 8e3c
000003b0: abb6 87bc cc99 803d 1df0 7e3d 6385 60bc
000003c0: 20ff a73b 5040 80bb d890 27bb 3b0a cf3c
000003d0: 19b8 ab3c a2a9 22bd 7373 263d fb13 aa3b
000003e0: 2ac9 2fbb 0061 893c 1c67 713d 0043 7d3b
000003f0: ec19 4a3d bf58 673d d3b1 abbc 42a4 b1ba

fc2.weight f4 [128, 256]
0.004714611 0.05729433 0.046513975 -0.040152278 0.027984153 0.053899746 0.04727129 0.0015031248
-0.03863503 0.02188093 -0.031504057 -0.009004593 0.02821868 0.012796141 -0.055414908 -0.033466198
0.054909647 -0.03211502 0.038093954 -0.018644024 -0.034675963 -0.01642285 -0.04591249 -0.00389911
-0.034844887 -0.014699124 -0.0029213056 -0.04428356 -0.018921241 -0.038334765 -0.04649035 -0.042188004
0.008328214 0.059084594 -0.009527607 0.060925804 0.053162705 0.0026560873 0.031493027 -0.024728201
-0.06178227 0.009408605 -0.040923696 -0.0018224631 -0.043285206 0.0023774356 -0.021814076 0.04130029
-0.051737584 0.044280887 0.04911589 -0.032550044 0.023181655 -0.050733507 -0.02447471 0.015166871
-0.02447546 0.056744695 -0.009978451 0.029158125 0.035201706 -0.03197801 0.03079417 0.021625958
-0.060155433 -0.026088469 -0.05319319 0.018866874 -0.0012666658 -0.04151704 -0.039356105 0.0032399148
0.04259054 0.001744546 -0.036258243 -0.012277319 0.000560008 0.000956392 -0.01948161 0.00848148
-0.0077811033 -0.027266942 -0.011337869 0.040690407 0.05931955 0.0048335344 0.019935604 0.03506936
0.04560454 0.038356043 0.032371 -0.019122794 -0.04992505 -0.021159053 -0.021995798 -0.0009429902
-0.0049111065 0.05837076 -0.061429266 0.05198897 -0.050907657 -0.0005938315 -0.024290137 0.034492407
-0.043075867 0.00027841807 -0.03836096 0.038745105 -0.0485533 -0.004862601 0.031848587 0.016800225
-0.053682208 0.051158533 0.019776613 0.029030118 -0.01608239 -0.042818118 0.037074734 -0.05120419
0.05682187 -0.029979482 -0.021910444 -0.018925125 -0.019250019 0.009740643 -0.026895586 0.0507157
-0.051070087 0.04632162 -0.0145685 -0.06211811 -0.05092056 -0.027503468 -0.024353541 0.023051828
0.0067434907 -0.024469305 -0.024415255 -0.03315264 -0.03511153 0.053238608 -0.053631946 -0.042882778
0.050240744 0.025555009 0.011429424 0.04826829 -0.05710976 -0.051137965 0.028717909 0.016693197
0.0106011545 0.012694083 -0.05284845 -0.060175218 -0.025425859 -0.029048808 0.026392803 -0.0330055
-0.0408322 -0.029012486 -0.06091189 0.01673083 -0.05487784 0.05623739 -0.028438501 0.059860744
-0.042696737 -0.061563797 0.0082847625 -0.06200926 -0.012059735 -0.045875445 0.0049730074 0.015263662
-0.062274203 0.00043107296 -0.026783772 0.04218395 -0.010617521 -0.061335646 -0.04792534 0.010557575
0.039632685 0.030618355 0.03514658 -0.006501255 -0.022560187 0.038725365 0.036161385 0.014018421
0.039652377 -0.025884569 -0.014140025 -0.023454942 0.02445785 0.019202936 0.031721685 -0.030960012
0.015555046 -0.02514381 -0.01955489 -0.01438193 0.0026282445 -0.04105536 -0.048878156 0.044810884
0.04898398 -0.0020137057 0.052813284 -0.0046971324 0.030947527 0.028884964 0.030841768 -0.007864691
-0.013811678 -0.048529804 0.01507438 0.010452092 0.061565064 0.01681414 0.035177052 0.03188857
-0.03803838 -0.06624921 0.004503757 0.055064075 -0.061677508 0.03514246 -0.05042915 -0.059221487
0.029754156 0.0013226047 0.029997572 -0.024944365 0.016363844 -0.016736045 -0.042352475 0.060759008
0.018975578 -0.020766132 -0.0125869885 -0.029473338 -0.038940325 -0.047108077 0.007871374 -0.011824936
0.005624406 0.02537757 0.033758383 -0.041474305 -0.040191535 -0.024369204 -0.012966141 -0.03887058
00000000: 067d 9a3b 76ad 6a3d 7085 3e3d b776 24bd
00000010: 063f e53c fbc5 5c3d 8a9f 413d 8004 c53a
00000020: c43f 1ebd a33f b33c 660a 01bd 0088 13bc
00000030: dc2a e73c e8a6 513c befa 62bd da13 09bd
00000040: f0e8 603d 0a8b 03bd 6808 1c3d 5abb 98bc
00000050: 6208 0ebd 3689 86bc bc0e 3cbd 3688 7fbb
00000060: 83b9 0ebd 98d4 70bc 6073 3fbb ae62 35bd
00000070: b800 9bbc ea04 1dbd aa6c 3ebd 54cd 2cbd
00000080: 1073 083c b002 723d ae19 1cbc 568d 793d
00000090: 23c1 593d c011 2e3b d5fe 003d cc92 cabc
000000a0: 680f 7dbd 8d26 1a3c 9b9f 27bd b7df eeba
000000b0: d44b 31bd c0ce 1b3b 6fb3 b2bc 7e2a 293d
000000c0: caea 53bd e05f 353d be2d 493d 3253 05bd
000000d0: 74e7 bd3c f0cd 4fbd 307f c8bc 787e 783c
000000e0: c380 c8bc 206d 683d a87c 23bc 05dd ee3c
000000f0: aa2f 103d 60fb 02bd 0e44 fc3c ec28 b13c
00000100: 8b65 76bd 7cb7 d5bc 1ae1 59bd b48e 9a3c
00000110: 4006 a6ba c60d 2abd de33 21bd c054 543b
00000120: 6b73 2e3d 40a9 e43a 8683 14bd cf26 49bc
00000130: 80cd 123a 61b6 7a3a e697 9fbc e8f5 0a3c
00000140: a0f8 febb ec5e dfbc 78c2 39bc fcaa 263d
00000150: 0ef9 723d a062 9e3b fe4f a33c e4a4 0f3d
00000160: d3cb 3a3d 3a1b 1d3d 7497 043d 68a7 9cbc
00000170: 367e 4cbd c055 adbc 8830 b4bc 0033 77ba
00000180: 59ed a0bb 2e16 6f3d 419d 7bbd 63f2 543d
00000190: 8c84 50bd 5bab 1bba 1cfc c6bc e947 0d3d
000001a0: 5270 30bd a4f8 9139 6220 1dbd 30b3 1e3d
000001b0: d3df 46bd 7456 9fbb aa73 023d a0a0 893c
000001c0: e0e1 5bbd 9c8b 513d 9002 a23c 92d0 ed3c
000001d0: 37bf 83bc 0d62 2fbd addb 173d 7cbb 51bd
000001e0: 0dbe 683d 8897 f5bc 887d b3bc dd08 9bbc
000001f0: 37b2 9dbc 3897 1f3c 2254 dcbc 44bb 4f3d
00000200: de2e 51bd bdbb 3d3d b8b0 6ebc 8f6f 7ebd
00000210: 1492 50bd f44e e1bc 1481 c7bc 30d7 bc3c
00000220: 80f8 dc3b da73 c8bc 8002 c8bc 10cb 07bd
00000230: 1cd1 0fbd ba10 5a3d 2cad 5bbd daa5 2fbd
00000240: 3dc9 4d3d bd58 d13c 7b42 3b3c f8b4 453d
00000250: eceb 69bd 0b76 51bd d241 eb3c 2cc0 883c
00000260: 77b0 2d3c d8fa 4f3c 9e77 58bd 4a7a 76bd
00000270: e449 d0bc c4f7 edbc b835 d83c c630 07bd
00000280: aa3f 27bd 98ab edbc bf7e 79bd 180f 893c
00000290: 96c7 60bd 2d59 663d dcf7 e8bc 8a30 753d
000002a0: c6e2 2ebd 522a 7cbd d0bc 073c 6cfd 7dbd
000002b0: 3296 45bc e4e7 3bbd 9cf4 a23b 7014 7a3c
000002c0: 3c13 7fbd a201 e239 a469 dbbc 14c9 2c3d
000002d0: 1cf5 2dbc 163b 7bbd 5c4d 44bd aef9 2c3c
000002e0: e255 223d 58d3 fa3c dcf5 0f3d 7b08 d5bb
000002f0: 24d0 b8bc 7d9e 1e3d f61d 143d 85ad 653c
00000300: 886a 223d e00b d4bc 90ab 67bc 9424 c0bc
00000310: d45b c83c 7a4f 9d3c 99ee 013d da9f fdbc
00000320: 97da 7e3c 64fa cdbc 9431 a0bc 30a2 6bbc
00000330: a03e 2c3b aa29 28bd 7634 48bd 9e8b 373d
00000340: 6da3 483d 60f8 03bb be52 583d 67ea 99bb
00000350: ab85 fd3c 29a0 ec3c e0a7 fc3c e8da 00bc
00000360: 604a 62bc 30c7 46bd 88fa 763c 403f 2b3c
00000370: a62b 7c3d cfbd 893c d015 103d 979d 023d
00000380: 22ce 1bbd aaad 87bd 4194 933b de8a 613d
00000390: 8ea1 7cbd 8af1 0f3d cc8e 4ebd 3b92 72bd
000003a0: fdbe f33c 405b ad3a 78bd f53c 2058 ccbc
000003b0: 780d 863c 081a 89bc ca79 2dbd 70de 783d
000003c0: ac72 9b3c bc1d aabc a839 4ebc 1272 f1bc
000003d0: e47f 1fbd 66f4 40bd eff6 003c 60bd 41bc
000003e0: f04c b83b 9fe4 cf3c 3b46 0a3d f6e0 29bd
000003f0: e19f 24bd eda1 c7bc f06f 54bc c236 1fbd

fc2.bias f4 [128]
-0.04321904 -0.046345454 0.034998156 -0.011684572 0.019197617 -0.039341226 -0.015635394 0.067672804
0.087108396 0.057385527 0.053399198 -0.010814582 0.066794544 0.050178677 -0.032087136 0.017549418
-0.021440597 0.022981878 0.023172956 0.04742886 -0.01624308 -0.03224235 0.06910126 0.0717016
0.034515727 0.06363501 -0.0073116543 0.027927222 0.04176515 0.06990374 -0.004351413 0.02046622
-0.058573637 -0.068619885 0.009167867 0.07056478 -0.0140342675 -0.019065829 0.030373123 -0.029199518
-0.040975664 0.035140608 -0.017450754 -0.029815605 -0.002682574 0.05540383 -0.049415786 0.056466483
-0.061166964 0.040402126 -0.019177908 -0.040245354 0.06555484 0.05305988 0.07350526 0.06056409
-0.06212893 -0.051444538 -0.05007184 -0.044946387 0.078622885 0.055892907 0.018178286 -0.042575777
-0.044762913 0.03278738 0.012922905 -0.015798395 -0.057293024 0.057365954 0.05836667 0.056455836
0.04073646 0.02896842 -0.028036842 -0.02240805 0.04582766 0.08668607 0.022425737 0.042770408
0.01552359 0.0044635097 0.040838815 -0.060975917 0.04395282 0.022196779 -0.029589653 0.050970536
0.0035849945 -0.057550266 -0.037251428 0.050450265 0.060424287 -0.050015803 8.081959e-05 0.077485636
-0.045193065 -0.05954464 0.010566935 -0.051286522 -0.0141049735 -0.017891983 0.030456705 -0.03224364
0.04377695 -0.043021295 -0.033381786 -0.026656354 -0.022205051 0.020234048 -0.0519638 0.056614008
0.024499206 -0.0183323 0.015801564 0.03380004 -0.0066060843 0.052296057 0.010190768 0.08381773
0.06579244 0.08142208 0.04090192 0.06350681 0.037171856 0.053412355 -0.037409037 0.04870282
00000000: 7306 31bd bbd4 3dbd 3a5a 0f3d a670 3fbc
00000010: 5244 9d3c 4424 21bd cc15 80bc 0a98 8a3d
00000020: e365 b23d 160d 6b3d 1eb9 5a3d a52f 31bc
00000030: 94cb 883d 2888 4d3d cd6d 03bd ccc3 8f3c
00000040: 31a4 afbc 7e44 bc3c 36d5 bd3c c444 423d
00000050: 3510 85bc 8e10 04bd f684 8d3d 4ad8 923d
00000060: 5d60 0d3d 1253 823d 9a96 efbb a1c7 e43c
00000070: ef11 2b3d b129 8f3d 4c96 8ebb c6a8 a73c
00000080: e9ea 6fbd 9588 8cbd d234 163c 4484 903d
00000090: fcef 65bc f12f 9cbc 0ed1 f83c d433 efbc
000000a0: 19d6 27bd 99ef 0f3d e2f4 8ebc db3f f4bc
000000b0: 20ce 2fbb 20ef 623d 3568 4abd 6649 673d
000000c0: 368a 7abd b37c 253d fd1a 9dbc 50d8 24bd
000000d0: 9e41 863d 5155 593d ed89 963d 0d12 783d
000000e0: e87a 7ebd 82b7 52bd 2118 4dbd b419 38bd
000000f0: 0905 a13d f6ef 643d a1ea 943c f063 2ebd
00000100: 5159 37bd 0f4c 063d 98ba 533c a36b 81bc
00000110: 17ac 6abd 90f8 6a3d e411 6f3d 3c3e 673d
00000120: 46db 263d 2e4f ed3c 85ad e5bc 1691 b7bc
00000130: c9b5 3b3d 7788 b13d 2eb6 b73c 0630 2f3d
00000140: a856 7e3c a242 923b 9a46 273d e2c1 79bd
00000150: df07 343d 05d6 b53c 0066 f2bc 7bc6 503d
00000160: 3af2 6a3b d4b9 6bbd f494 18bd f0a4 4e3d
00000170: 757f 773d 5fdd 4cbd b07d a938 cab0 9e3d
00000180: 5d1c 39bd 15e5 73bd f020 2d3c d111 52bd
00000190: 8c18 67bc 3592 92bc 5780 f93c e811 04bd
000001a0: 764f 333d 1937 30bd 57bb 08bd 6d5e dabc
000001b0: 5ee7 b5bc e0c1 a53c fed7 54bd 17e4 673d
000001c0: 8fb2 c83c 9f2d 96bc 4872 813c e971 0a3d
000001d0: da77 d8bb 6434 563d 2ef7 263c a1a8 ab3d
000001e0: 30be 863d 9fc0 a63d c688 273d dc0f 823d
000001f0: 8441 183d eac6 5a3d 383a 19bd 9c7c 473d

fc3.weight f4 [3, 128]
-0.077093296 0.009703043 -0.09577058 -0.053929586 0.026436599 0.032054245 0.03557957 0.095438324
0.06679834 -0.07524063 -0.08341379 -0.052538846 -0.04095052 0.014900399 0.056982175 -0.08630825
-0.054073382 -0.113380745 0.118522316 -0.021019986 -0.111097194 0.0063239513 -0.1120429 0.06426625
0.0738796 -0.08880947 -0.041337237 0.03237055 -0.08676523 0.028605284 -0.0943361 -0.097746976
0.026962383 -0.0831334 -0.097936146 -0.08904108 -0.069890745 0.07223127 -0.08091408 -0.028663019
0.08062097 -0.041037217 -0.031552333 0.05031816 -0.099616766 -0.03638916 -0.054134224 0.07033318
-0.061366703 -0.07869141 -0.016225781 -0.043301683 0.06581237 -0.03516885 -0.07158324 -0.09956592
-0.054139882 -0.054481514 0.07529225 0.07621231 0.055700373 -0.060716208 0.043451503 0.08668258
-0.041379895 -0.104100555 -0.031230174 -0.016073966 -0.083855666 0.09064006 -0.07136854 -0.080214076
0.112439595 -0.051539622 -0.075763926 0.005791452 -0.04672008 0.05231341 -0.009367836 -0.11975604
-0.106646866 0.042330086 0.090420924 0.075010784 -0.011246579 -0.07514091 -0.028267875 0.11199978
-0.051891096 -0.020845233 -0.038527574 0.029878005 0.06373685 0.035834476 0.067280345 -0.09243371
-0.06441276 -0.015019933 0.11433161 0.05065297 0.060613964 0.061202753 -0.018222043 0.047433116
0.0381841 0.005101613 -0.078822814 0.10163871 0.04745177 -0.016183099 -0.06428161 -0.06366417
0.0151837375 -0.0100661665 -0.015331705 -0.06901883 -0.031790387 0.06283854 -0.06345923 0.08332064
-0.033066317 0.082419336 -0.11461334 -0.0828133 0.11246442 0.071753934 -0.04632626 -0.0792454
0.03378944 0.059102293 0.044005603 -0.017942984 0.021086795 0.047411136 0.051928304 -0.043331984
0.090843 0.039308783 0.09968727 0.067919694 -0.096795425 0.02642952 -0.05692227 -0.010647435
0.040852144 0.04446406 -0.021925354 -0.097368225 -0.083009005 -0.029187437 0.08586589 -0.049651124
0.1172681 0.0067571867 -0.039045013 -0.049535684 -0.015604624 -0.038231365 -0.0007118793 0.05846286
-0.046228517 0.020891927 0.014723043 -0.072657146 0.045567576 -0.08436945 -0.061192792 -0.015759291
-0.041132346 0.09554623 -0.08961669 -0.06510104 -0.11670176 0.071338534 0.07665823 -0.023262605
-0.062766284 -0.022528403 -0.09304761 -0.021683525 -0.12040643 -0.086250864 -0.06097314 0.11904222
-0.012968734 0.06534261 -0.079759486 0.040750943 -0.10662081 -0.098578386 -0.086061254 0.08368198
0.0018806644 0.022744024 -0.05854501 -0.018400513 0.080713406 -0.10662501 0.096192576 -0.10789325
-0.10432489 0.054238707 0.10018219 0.041536372 0.08980738 0.05140163 0.07910727 0.021909224
-0.09793743 -0.0021921543 -0.0063159536 -0.07110898 -0.09477512 0.027626866 -0.033479936 -0.09815909
-0.11411133 -0.009415914 0.01710623 -0.059453633 0.0021037937 0.044101607 -0.044911977 0.049679708
0.05726648 -0.0681255 -0.03298088 0.033759933 0.01911983 -0.037408534 -0.10418197 -0.03957361
-0.10321705 -0.053633243 0.024897214 -0.0742111 -0.07293126 0.10141926 -0.019572377 0.11181025
-0.1010339 -0.10282675 -0.028520064 0.013532212 -0.03932412 -0.0071099442 -0.08996279 -0.028295986
0.047561236 -0.10598145 0.029474858 -0.03702636 0.070290916 -0.021147879 -0.058745164 0.053453546
00000000: 17e3 9dbd 83f9 1e3c 5e23 c4bd 45e5 5cbd
00000010: 9191 d83c 504b 033d e2bb 113d 2b75 c33d
00000020: 91cd 883d c217 9abd d9d4 aabd f932 57bd
00000030: bcbb 27bd ce20 743c 2466 693d 61c2 b0bd
00000040: 0d7c 5dbd 2a34 e8bd d4bb f23d 1b32 acbc
00000050: ed86 e3bd 2639 cf3b bf76 e5bd 069e 833d
00000060: 304e 973d bde1 b5bd 3c51 29bd fb96 043d
00000070: f8b1 b1bd a155 ea3c 4933 c1bd 912f c8bd
00000080: 37e0 dc3c d841 aabd bf92 c8bd 2b5b b6bd
00000090: e122 8fbd fded 933d 48b6 a5bd b5ce eabc
000000a0: 9b1c a53d a416 28bd 053d 01bd 6a1a 4e3d
000000b0: e003 ccbd cd0c 15bd d9bb 5dbd d80a 903d
000000c0: a75b 7bbd f628 a1bd eeeb 84bc 1b5d 31bd
000000d0: a3c8 863d 360d 10bd 3c9a 92bd 38e9 cbbd
000000e0: c8c1 5dbd 0228 5fbd d332 9a3d 3315 9c3d
000000f0: 1326 643d 8fb1 78bd 34fa 313d a386 b13d
00000100: f77d 29bd ac32 d5bd 6cd6 ffbc 8dad 83bc
00000110: 85bc abbd 7fa1 b93d ab29 92bd 4747 a4bd
00000120: bb46 e63d 361b 53bd 1e2a 9bbd 38c6 bd3b
00000130: 8e5d 3fbd 9646 563d 8d7b 19bc a842 f5bd
00000140: ac69 dabd 5062 2d3d 9b2e b93d 419f 993d
00000150: 9243 38bc 7ae3 99bd 0892 e7bc 2460 e53d
00000160: c28b 54bd 9fc3 aabc 17cf 1dbd b8c2 f43c
00000170: 7788 823d 2cc7 123d 47ca 893d e34d bdbd
00000180: d6ea 83bd 2a16 76bc b126 ea3d 7d79 4f3d
00000190: 5946 783d bdaf 7a3d 6546 95bc 3a49 423d
000001a0: ee66 1c3d 6e2b a73b db6d a1bd f527 d03d
000001b0: ca5c 423d 6b92 84bc 14a6 83bd 5c62 82bd
000001c0: 36c5 783c 90ec 24bc d531 7bbc bf59 8dbd
000001d0: a336 02bd 7eb1 803d eaf6 81bd 03a4 aa3d
000001e0: 8c70 07bd 78cb a83d 66ba eabd 059a a9bd
000001f0: bf53 e63d baf3 923d 9bc0 3dbd 6a4b a2bd
00000200: cc66 0a3d 3f15 723d 383f 343d 2afd 92bc
00000210: 37be ac3c 2e32 423d c6b2 543d e17c 31bd
00000220: e50b ba3d 3f02 213d d728 cc3d 7b19 8b3d
00000230: ae3c c6bd b982 d83c 5427 69bd 9472 2ebc
00000240: 9454 273d f21f 363d cd9c b3bc fe68 c7bd
00000250: a000 aabd 7e1a efbc 75da af3d fa5e 4bbd
00000260: 422a f03d 646b dd3b aaed 1fbd eee5 4abd
00000270: 89aa 7fbc 7e98 1cbd 699d 3aba c076 6f3d
00000280: 1d5a 3dbd 8c25 ab3c eb38 713c 45cd 94bd
00000290: 11a5 3a3d e4c9 acbd 4ba5 7abd a119 81bc
000002a0: 647a 28bd bead c33d f588 b7bd b253 85bd
000002b0: 5501 efbd f019 923d fdfe 9c3d 3891 bebc
000002c0: 9c8b 80bd 7c8d b8bc bf8f bebd a6a1 b1bc
000002d0: a597 f6bd 4ba4 b0bd f9be 79bd 68cc f33d
000002e0: d07a 54bc 59d2 853d f158 a3bd 76ea 263d
000002f0: 035c dabd 77e3 c9bd e240 b0bd 7561 ab3d
00000300: a080 f63a ad51 ba3c e4cc 6fbd acbc 96bc
00000310: 124d a53d 375e dabd 9d00 c53d 23f7 dcbd
00000320: 4aa8 d5bd 6829 5e3d 522c cd3d 0b22 2a3d
00000330: efec b73d 848a 523d fe02 a23d f97a b33c
00000340: 6b93 c8bd 3faa 0fbb 0ff6 cebb 96a1 91bd
00000350: 7519 c2bd bd51 e23c 4222 09bd a207 c9bd
00000360: 33b3 e9bd 3545 1abc 5d22 8c3c a785 73bd
00000370: cddf 093b e3a3 343d 9ff5 37bd f37c 4b3d
00000380: 4290 6a3d 6285 8bbd f616 07bd db47 0a3d
00000390: 31a1 9c3c b139 19bd 5b5d d5bd f017 22bd
000003a0: 7663 d3bd 88ae 5bbd 3ef5 cb3c fdfb 97bd
000003b0: fc5c 95bd e7b4 cf3d 4056 a0bc c6fc e43d
000003c0: ddea cebd d596 d2bd e9a2 e9bc 36b6 5d3c
000003d0: 5412 21bd 89fa e8bb 693e b8bd fccc e7bc
000003e0: 92cf 423d cd0c d9bd 4275 f13c f4a8 17bd
000003f0: aff4 8f3d 513e adbc c59e 70bd 1bf2 5a3d

fc3.bias f4 [3]
-0.030036611 0.009808796 0.05725462
00000000: 570f f6bc 13b5 203c d283 6a3d
