face_classifier.pth (torch, 661144 bytes, 6 tensors)

fc1.weight f4 [256, 512]
000000 47 a9 22 3d 77 40 10 3d dc 57 83 3d 0c ab bc ba
       0.039712217 0.03521773 0.06413242 -0.0014394238
000010 b2 60 8e 3c 7c 3a 31 3c 68 71 6e bd 32 2e e8 3b
       0.017380092 0.010817166 -0.05821362 0.007085585
000020 87 ae 86 bc 10 1d 80 bd 1f 98 2b bc 58 d1 13 bc
       -0.016440643 -0.06255543 -0.01047328 -0.009022079
000030 33 48 ea 3c 79 9e 2d bd cd 82 47 bd 35 8e 37 bd
       0.02859888 -0.04238746 -0.048708726 -0.044813354
000040 29 be 7d 3c c6 ef a0 3c 4c fe c3 b9 dc 1c f3 bc
       0.015487232 0.019645583 -0.00037382764 -0.029676847
000050 37 75 6d 3d 69 68 8e 3c 39 a3 60 3c ee 89 0e 3d
       0.057973113 0.017383771 0.01371079 0.03479951
000060 a7 74 79 bd ee fb 01 3b 48 1b 80 3c f7 84 95 bc
       -0.060902264 0.0019834 0.015638009 -0.01825188
000070 46 6c e0 b9 69 f4 52 3c b7 29 92 3c 6e b2 43 bd
       -0.0004280528 0.012875655 0.017842157 -0.047777586
000080 01 dd ed 3b c7 9d c4 bc fb 22 da bb ba 71 b1 bc
       0.0072590117 -0.024001015 -0.006657002 -0.021660674
000090 d7 ff 65 3d 18 fc 4e bd 44 5a 16 bb b9 be 57 3c
       0.05615219 -0.050533384 -0.0022941986 0.01316803
0000a0 e3 94 04 bc 51 84 14 3d 2b af 73 bb 14 5d 1f 3d
       -0.008092138 0.036259 -0.0037183266 0.038907126
0000b0 75 48 20 3d 3b 6d 13 3d 1f 4f 81 3c be 29 86 bc
       0.0391316 0.035992842 0.015784798 -0.016377326
0000c0 9b b4 d1 bb ef 2b fb 3a 9a ad 30 3d 4e 86 10 3d
       -0.0063997037 0.0019162874 0.04313431 0.035284333
0000d0 40 5a 02 3d 8c 5e 41 3c a4 d5 6e bc f6 4a 36 3b
       0.03182435 0.011802327 -0.014577303 0.0027815676
0000e0 95 3e ac 3c fb 5c 8b bd f7 48 32 bd ba a4 c2 bc
       0.021025935 -0.06804844 -0.043526616 -0.023760188
0000f0 37 dd 1c bc f0 63 29 bd 8c 35 b6 3c e8 df 17 3c
       -0.009574226 -0.041355073 0.02224233 0.009269692
000100 c0 f9 25 bc 1a bc 34 3d bf 4b 31 3d 17 59 3c 3c
       -0.010130346 0.0441247 0.043285128 0.01149585
000110 c9 97 4e bc 84 a1 24 3d 27 04 3f 3d 55 e2 4b bc
       -0.012609431 0.040193096 0.04663482 -0.0124440985
000120 35 d1 c8 bb 9e 9a d5 3b 29 7c 6e 3d a4 6b 88 bc
       -0.006128455 0.006518676 0.058223877 -0.01665289
000130 50 09 f1 38 af 39 1c 3d a0 df e9 3b 7b 3c d8 3c
       0.0001149351 0.03814095 0.007137254 0.026396027
000140 b4 30 85 bc f1 81 04 bd d6 19 2f 3d 17 bc 3b 3c
       -0.016258575 -0.032350484 0.04274925 0.011458418
000150 d0 0f 30 bd cf 9d f9 ba 30 60 c0 3c 0b 30 67 3d
       -0.04298383 -0.0019044223 0.023483366 0.0564423
000160 d8 56 b2 bb fd 93 58 3d 32 1d 31 3c 49 2d 87 3d
       -0.0054424815 0.052875508 0.010810183 0.06600434
000170 3f d0 06 bd 5d 85 23 3d 6f c3 76 bd 77 51 6f bd
       -0.032913443 0.039922107 -0.060244974 -0.0584273
000180 7c 62 4d bc b1 42 c5 3c fd 5d 2a 3b 2d 1c 5c bc
       -0.012535688 0.024079653 0.0025995963 -0.013434452
000190 e7 e8 1e 3c ac 0f a0 3c 6d 9b 89 3b ca 9d 5c 3c
       0.009699083 0.019538723 0.0041994364 0.013465354
0001a0 d8 d4 71 3c 15 de dd 3b 5b 72 4a 3c fb a5 20 3c
       0.014760219 0.006770859 0.012356366 0.009805198
0001b0 b1 69 93 3c ae c5 a3 bb a3 7c ab bb 32 86 6c 3c
       0.017994734 -0.0049979305 -0.0052333637 0.0144362915
0001c0 17 3c 0b bd ee 83 ae ba 6b 0c 2d 3d 94 1b 66 3d
       -0.033992853 -0.0013314465 0.04224817 0.056178644
0001d0 ff a8 12 bd 47 6a a3 3b db a0 06 3d 1b 5f 4c bc
       -0.0358057 0.0049870345 0.032868247 -0.012473847
0001e0 ec 90 36 bd af 66 2b bd 0a d9 7b bc f5 f7 07 bd
       -0.044571802 -0.041845974 -0.01537157 -0.033195455
0001f0 c1 bc 5c 3d 79 fb 58 3d 7c 35 16 bd ce 61 3e 3b
       0.053890947 0.052974198 -0.0366721 0.0029049995
000200 18 ef ff 3b c7 b3 1f 3d b5 60 42 bd 78 df 46 bb
       0.0078104846 0.03898981 -0.04745551 -0.00303456
000210 ab 72 b5 3c 10 b7 5a bd 44 5a 94 3d 70 4b 62 3d
       0.022149405 -0.05339724 0.07243779 0.055247724
000220 1d 38 16 3c 58 a6 6e bd e8 c0 64 bd 16 f8 f0 bc
       0.009168652 -0.058264107 -0.055848032 -0.029415172
000230 d8 c2 91 bc 41 56 8c 3b 91 3b 02 bd 7f 0b ae 3c
       -0.017793104 0.004282743 -0.03179509 0.021245716
000240 f6 ca 87 3c 0b 62 d8 3c cc bf c5 3c b8 f6 23 bd
       0.016576272 0.026413938 0.024139307 -0.04003021
000250 f0 ee ec 3a 0d 59 56 3a de d9 e5 3b 36 94 d0 bb
       0.001807658 0.0008176722 0.007014497 -0.0063653244
000260 0d 70 9c bb 16 4a 82 3c c4 3d 25 bd 5d 25 e0 ba
       -0.0047740997 0.015904468 -0.040342107 -0.0017100979
000270 b6 5c d5 ba 98 60 23 3c 2d 80 4b bd 98 0d f4 bc
       -0.001627824 0.00997176 -0.049682785 -0.029791638
000280 76 de 8c 3d 77 2c 3e bd 6e 41 47 bd 24 3c 08 bd
       0.068783686 -0.046429124 -0.048646383 -0.03326048
000290 e4 07 16 3d 68 30 52 bd 32 0f 11 bc 95 1f 2e bb
       0.03662862 -0.051315695 -0.0088537205 -0.0026569117
0002a0 ca 41 67 3c 21 53 7f ba 33 a6 80 3c 56 a3 74 bd
       0.014114806 -0.0009739865 0.01570425 -0.05972608
0002b0 82 7b 99 3c 90 43 b1 3c eb 42 bc bb f6 47 54 bc
       0.01873565 0.021638662 -0.005745282 -0.01295661
0002c0 72 1b dc 3b e8 b5 3d bd 7b 34 f6 3c 79 6a 2c bd
       0.006717139 -0.046316057 0.030054322 -0.042093728
0002d0 b7 37 a2 3c 8c b2 df bc d4 95 10 3d e6 0b c2 bc
       0.019801958 -0.027306817 0.035299137 -0.023687314
0002e0 6d 3b 2b 3c 0d cb 89 bc e3 e4 23 bd 66 05 ca bc
       0.01045118 -0.016820455 -0.040013205 -0.024660777
0002f0 46 91 01 3d 85 ec 8b 3a 02 f4 8b bd ed f4 89 bc
       0.031632684 0.0010675347 -0.0683365 -0.016840423
000300 79 6c 1c bd a3 f8 5e bd 51 ce 53 3d 1b 95 75 bd
       -0.038189385 -0.054436337 0.05171043 -0.05995665
000310 f9 fa 8c 3d da 7a b8 3b fa b6 bd bc 43 b9 8c 3c
       0.06883807 0.0056298794 -0.02315854 0.017178183
000320 74 27 ee bc 46 a5 0a 3d a0 d4 6a 3d 02 f1 5d bc
       -0.029071547 0.033849023 0.05733168 -0.01354623
000330 98 92 20 bc 81 9f 7f 3d dd 73 67 bd ce 94 47 bd
       -0.009800576 0.062407974 -0.05650698 -0.048725896
000340 e9 4e 91 bd d8 92 af 3c 40 dd 8a 3d f6 e8 82 bc
       -0.07095129 0.021432325 0.06780481 -0.015980225
000350 ac 0f 1b 3d 4d d4 b3 3c 13 11 10 bd 66 68 dd 3b
       0.037856743 0.021951819 -0.035172533 0.00675683
000360 97 61 68 bd 3e a2 35 bd 8b 9f ac bc f4 c4 cc bc
       -0.056733694 -0.04434418 -0.02107217 -0.024996258
000370 e9 2a ed 3b 7e aa 68 bd 07 21 2e 3d f5 4c 24 bc
       0.0072377813 -0.05680322 0.042511966 -0.010028114
000380 1f 5f 83 bd 92 04 ec bb d1 6c 53 bd 1e eb d1 bb
       -0.06414627 -0.0072026933 -0.051617447 -0.006406202
000390 20 b0 c5 3c 4d 0d d4 3c bc 70 b0 3c 71 7d 8e bb
       0.024131835 0.025885249 0.021538131 -0.00434845
0003a0 4e 41 2c 3b 84 ad 09 bd bb aa 44 3d 2a 15 bf bc
       0.0026284042 -0.033612743 0.048014384 -0.023325521
0003b0 65 20 43 bd b4 c4 1f 3b 34 16 b2 bc 3d fb 5b bc
       -0.047638316 0.0024378719 -0.021739103 -0.013426599
0003c0 f4 d2 7d bc c3 28 cc 3a 11 61 fc 3c 25 78 ea bc
       -0.01549219 0.0015576113 0.030808004 -0.028621743
0003d0 3b 66 65 3d 2f 50 36 bd 61 4b 1f bb 1f df 16 3d
       0.056005698 -0.044510063 -0.0024306404 0.03683388
0003e0 b8 72 35 bb 27 4e 22 bd be c2 ac 3a 2b 06 6f 3c
       -0.0027686786 -0.039625313 0.0013180596 0.014588873
0003f0 b8 17 0d 3d e1 d1 9d 3c 8e 9f 4f bb 36 82 6e bc
       0.034446448 0.019265117 -0.0031680795 -0.014557412

fc1.bias f4 [256]
000000 05 e9 86 3d 65 0f 07 ba 78 10 75 3c fe 18 ef 3c
       0.06587414 -0.0005152135 0.01495754 0.029186722
000010 97 b9 21 bb f2 ed 87 3d 4d 29 c3 3c f8 3a 96 3d
       -0.002467727 0.06637181 0.023823405 0.07335466
000020 ed 2b 5c 3d 54 54 1a 3d 3c aa 52 3d b6 95 f4 bb
       0.05375283 0.037678078 0.05143188 -0.007464136
000030 70 1f ea 3b 9c 73 4c 3d 37 3e 3d 3d 0a 1f 18 bc
       0.007144861 0.04991494 0.04620191 -0.009284744
000040 67 4f 53 3d 5c 6a 16 bc 08 ee e5 3c ba ab 02 3c
       0.051589396 -0.0091806315 0.028067604 0.007975513
000050 1c 6b 43 3d 26 4e 39 3c 95 c6 5a 3d fb 57 30 3d
       0.04770957 0.011310136 0.05341204 0.043052655
000060 1b ee 86 3c 0a da 86 3d 83 01 e2 3c f8 4b 96 bb
       0.01647096 0.065845564 0.027588611 -0.004586693
000070 fa 0c 76 3c 1c 03 5f 3c 04 09 86 bb 01 1d 63 3c
       0.015017742 0.013611581 -0.00409043 0.013861896
000080 ba c7 53 3c 07 fa 87 ba 14 d5 80 b9 b3 8e 0b 3d
       0.0129260365 -0.0010374197 -0.00024572818 0.034071635
000090 b2 f0 2c 3d 47 21 81 3d 1e 52 7d 3b 47 a5 1f bc
       0.042221732 0.06305175 0.0038653682 -0.009743995
0000a0 f8 27 15 ba 83 19 a7 3c fb c5 ab bb da f2 e0 3c
       -0.0005689855 0.020397907 -0.005242107 0.02745955
0000b0 a2 54 20 3d c1 91 8a 3d 64 4f cd 3b 3d 86 68 3d
       0.039143212 0.067660816 0.0062655676 0.056768645
0000c0 69 4e 91 3c 66 f7 71 ba 00 23 32 bd ca f2 5b ba
       0.017737584 -0.00092302857 -0.04349041 -0.00083903654
0000d0 41 7f 2a 3d 5c 85 39 3c 2d 73 d2 3c 6b ad 70 3c
       0.041625265 0.011323299 0.025689686 0.014689784
0000e0 d0 92 d8 bc 5e 6e 08 3d ea 40 dd 3c 6d 04 be 3a
       -0.026437193 0.03330838 0.027008492 0.0014497169
0000f0 31 73 b1 3c ad f8 67 3b 25 86 0c 3d 0d 4e 53 3c
       0.021661373 0.0035396025 0.034307618 0.012897027
000100 2b 72 89 3d 71 39 35 3d ec 31 51 3d f8 12 6e 3d
       0.06711229 0.044244234 0.051073 0.05812356
000110 67 0f a4 3c c6 c4 2a bc 9a 15 d6 3c 72 b1 2d 3d
       0.020026876 -0.010422891 0.026133347 0.042405553
000120 8b c9 27 3d 48 ef 5c 3b 8e 97 a1 3c c7 76 fd 3c
       0.04096369 0.0033711959 0.019725587 0.030940427
000130 18 9f 38 3d 89 f8 aa 3c 5a 89 7d 3d d5 63 76 bb
       0.0450736 0.020870464 0.061898567 -0.0037596126
000140 93 74 95 3c 4d db 89 3d 1f 13 27 3d bd 9d 8c 3d
       0.018244063 0.067312814 0.04078972 0.06866024
000150 c9 9c 93 bc 2f 3a 2d ba 64 b0 54 3d f0 03 3f bd
       -0.018019097 -0.00066080963 0.05192603 -0.046634614
000160 3c bf d7 3c 05 d0 8a 3d d7 4c 70 3d 04 a3 df 3b
       0.026336305 0.06777958 0.05866703 0.006824853
000170 b5 45 42 3d 32 b5 0f 3d 58 34 4f 3d 52 47 1e 3d
       0.04742976 0.03508491 0.05058703 0.038642235
000180 04 aa d5 3c 7e c0 74 3d 42 3d c5 3c fc eb e7 3c
       0.026082046 0.059753887 0.024077062 0.028310768
000190 2d 94 8a 3d 61 28 81 3d 7c 13 0b 3d 59 3a 87 3c
       0.067665435 0.0630653 0.03395413 0.016507315
0001a0 a0 d5 69 3d a9 a4 07 3d 16 72 36 bd 0c 47 73 3a
       0.057088494 0.033116017 -0.044542395 0.0009280301
0001b0 95 4e 95 3c 30 2c 8d 3d 44 fb 48 3d de 2d dc 3c
       0.018225947 0.06893194 0.04906775 0.02687734
0001c0 a1 97 81 3d cf a2 92 3d 47 01 4e bd 34 50 0c 3d
       0.06327749 0.071599595 -0.050294187 0.034256175
0001d0 27 95 63 3d 9b d7 8a 3d 6b f8 32 bd 38 dc 7d 3d
       0.055562165 0.06779405 -0.04369394 0.061977595
0001e0 f4 20 4c 3b 50 1e 25 bc b8 79 77 3b 41 11 4f 3d
       0.0031147571 -0.010078028 0.003776176 0.050553564
0001f0 5e 61 c2 3b 90 cf 44 3c e6 d8 93 3c 4a 23 8d 3d
       0.005932017 0.012012377 0.018047761 0.068914965
000200 10 da 1e 3c 72 07 be 3c 9e 56 4f 3d 27 f0 07 3c
       0.009695545 0.02319691 0.050619714 0.008297003
000210 34 0a 93 3b f8 35 8c bb 75 ee 8d 3d 3a 58 b1 3c
       0.0044873003 -0.0042788945 0.06930248 0.021648515
000220 7e 55 76 3c 31 7e f0 3c 61 55 50 3d 6c 67 09 bc
       0.015035031 0.029357048 0.050862674 -0.008386474
000230 06 58 59 3d a0 ac 3d bc 58 64 a8 3c 00 26 a6 3c
       0.05306246 -0.011576802 0.02055566 0.020281792
000240 f9 6a df bc 13 a7 11 3c 1d e5 02 3c 57 21 26 bd
       -0.027272688 0.008889931 0.007989195 -0.04055914
000250 8d 00 00 3c dd b3 d4 3b fb 2d 04 3d 7c 4f 1c bc
       0.007812631 0.006491168 0.032270413 -0.009540435
000260 43 f7 50 3d 86 5a bf bc 2d e0 02 3d be e2 ee 3c
       0.051017057 -0.023358595 0.031952072 0.029160853
000270 13 1a 4d 3d c5 63 c8 3c 11 c4 88 3d 6f f4 a8 bc
       0.050073694 0.024461636 0.06678022 -0.020624368
000280 59 3d ab 3c 23 a0 94 3c 1e 19 ff 3a 5f c6 4c bc
       0.020903276 0.018142765 0.0019462442 -0.012498467
000290 6d 56 17 bd 4e 13 2d 3d 79 a9 2b bc 18 e0 d3 bc
       -0.036947656 0.04225474 -0.010477417 -0.025863692
0002a0 b5 c2 a8 bb e6 fb 53 3d 42 a1 02 3d 5a f0 ae 3b
       -0.005150164 0.0517539 0.03189207 0.0053387107
0002b0 aa 2f 86 3b a1 3c ad 3c 9b 57 13 3b 9a 22 50 bd
       0.0040950375 0.021147074 0.0022482637 -0.05081425
0002c0 4a cd 3f 3d 43 d5 c0 bc 59 a7 03 3d 9c 1e 06 3d
       0.04682664 -0.023539191 0.032142017 0.032744035
0002d0 58 d4 f0 3b 95 82 03 3d c1 98 25 3d 96 59 01 3d
       0.007349532 0.032106955 0.04042888 0.031579576
0002e0 2a 46 1a 3d 4b 83 8e 3c 8c 6e be bb 92 0a 8e 3d
       0.03766457 0.01739659 -0.005811518 0.0693561
0002f0 a0 9a 86 3d 82 b0 45 3d b2 50 ec 3c 29 c7 ec 3c
       0.06572461 0.048264034 0.028847072 0.02890356
000300 13 e3 da 3c ec 71 65 3d 25 07 50 3d a8 d6 14 3d
       0.026719606 0.056016847 0.050788064 0.036337525
000310 49 e6 be bb 60 6b 66 38 a7 5e 45 3c 6c 6a 34 3d
       -0.005825792 5.4936274e-05 0.012046493 0.044046804
000320 c2 9b 5c bc 84 fe 97 3d a8 60 fb bc e8 ac 1c 3b
       -0.01346487 0.07421592 -0.030685738 0.002390677
000330 3a 8a d2 3b 07 9e 4f 3d 56 52 d8 3c fc 2d 0b 3c
       0.0064251693 0.050687816 0.026406448 0.00849485
000340 78 f8 5c bb c3 a6 96 3d 89 98 26 3d 58 60 b3 bb
       -0.0033717435 0.07356026 0.040672813 -0.0054741316
000350 19 90 48 bd e4 68 8d 3c 71 7e 10 3d 9f 3e 19 3d
       -0.048965547 0.01726193 0.035276834 0.037413236
000360 6d c8 17 3d 07 20 14 bc 26 25 40 3d 08 55 89 bc
       0.037056375 -0.009040839 0.046910428 -0.016764179
000370 40 12 34 3d 90 f0 67 3d 4c 17 16 bc d7 5d f8 3c
       0.043962717 0.056625903 -0.009160828 0.030318184
000380 c2 a1 9c bc b5 38 f3 3c f6 0b 36 3d c5 e4 d2 3b
       -0.0191201 0.029690126 0.044445 0.006435963
000390 0c 3d c2 3b 17 18 4e 3c ea e6 9f bb bf 6e 2e 3d
       0.0059276875 0.012578986 -0.004879822 0.042586084
0003a0 c9 38 40 3d 1c 8e 92 3c 4c 93 7e 3b 2b 36 22 3d
       0.046929155 0.017890029 0.003884512 0.03960244
0003b0 f2 20 17 3d 09 39 37 3c 5f ed 84 3c fa 64 04 bc
       0.036896653 0.011183032 0.016226469 -0.008080715
0003c0 91 89 52 3d 41 ad 07 3d 73 38 7b 3d 67 50 63 3c
       0.051400725 0.033124212 0.06133313 0.01387415
0003d0 63 93 86 3c 8c a4 06 3d 34 02 92 3c 5c 13 07 3c
       0.016427701 0.032871768 0.017823316 0.008244362
0003e0 9d 6c 36 3d f8 1a 5b bb 8b 6f 51 3d 2a f8 15 3d
       0.044537175 -0.0033432823 0.051131766 0.03661362
0003f0 3f 3b 43 3c 44 73 e9 3c db 43 3a 3c e2 9b 7e bb
       0.011915981 0.028497346 0.011368717 -0.0038850238

fc2.weight f4 [128, 256]
000000 fc 9a bd 3c f4 57 5e bd 5b 4a 00 bc 2f f1 fa bc
       0.023145191 -0.054283097 -0.007830228 -0.030632583
000010 12 88 37 bc a3 8e 7c 3d 34 e9 37 3d 3e 7c a5 3d
       -0.011201875 0.061659466 0.044900134 0.08080338
000020 b1 35 8f 3d a6 87 a9 3b ed b7 17 3c af 17 aa bd
       0.06992663 0.0051736413 0.00926016 -0.083052985
000030 3f 5a 7f bd d7 79 ad 3d 11 8b 79 3d 2c cd d6 bb
       -0.062341925 0.08470505 0.06092364 -0.00655522
000040 a9 41 b1 bd a6 f1 5f bd cc 47 57 bd 13 aa ad bc
       -0.08655102 -0.054673813 -0.052558705 -0.021199262
000050 dd d6 a5 3c a9 4d 3d bd c3 37 0a 3d 72 95 9f bd
       0.020244056 -0.04621664 0.033744585 -0.07792176
000060 37 83 10 3d 54 6c 07 3c 19 9d 54 bd d9 a5 25 3c
       0.035281386 0.0082655735 -0.051907632 0.010110342
000070 a0 1b d8 bb 18 80 7d 3c a3 16 4d bd 9d ad b3 3c
       -0.00659509 0.015472434 -0.050070416 0.021933371
000080 16 86 df bc de e4 10 bb 95 94 f1 3c 86 06 75 bb
       -0.027285617 -0.0022109072 0.029489795 -0.0037387921
000090 b4 7b d9 bb f6 0d 6b bc c9 75 78 bd 5b fb 3e bd
       -0.006637061 -0.01434659 -0.060659204 -0.04662643
0000a0 e9 8c a8 3d f2 3f b4 bc d3 91 1e 3d 6b 5b a1 3c
       0.082300015 -0.022003148 0.038713288 0.019696912
0000b0 8c 3c 24 ba 39 46 a1 bd 09 e0 16 3d 75 76 2b bd
       -0.00062651257 -0.07874722 0.03683475 -0.041861016
0000c0 33 e0 97 3c 4d 23 ba 3c 6c 68 ad bc 83 99 1a bd
       0.018539524 0.02272191 -0.021167956 -0.037744056
0000d0 86 68 98 3c 49 6d 8c 3c d1 ec 0f 3d 0f 11 c4 3c
       0.018604528 0.017141955 0.035137955 0.023933915
0000e0 db 88 2d bd 25 86 70 bd e1 7c bd 3d 7c b5 5c 3d
       -0.042366844 -0.05872168 0.092523344 0.053884014
0000f0 32 b6 3e bd 8a 2d 62 3c 0c 4d f7 bc 07 d1 1d bd
       -0.046560474 0.013804803 -0.030188106 -0.038529422
000100 91 07 ae bd 91 f4 26 3d 64 a4 33 bd 3b 46 49 3d
       -0.08497537 0.04076058 -0.043857947 0.049139243
000110 18 b7 a7 3d 05 4b 13 bd 8a 3c ee ba 95 79 81 3d
       0.08189219 -0.035960216 -0.0018176001 0.06322018
000120 80 2d 82 bd 1c a7 71 bd 10 15 7d 3b 33 ab dd 3c
       -0.06356335 -0.05899726 0.003861729 0.027059173
000130 7f f5 c2 3c ee 53 b7 3c 29 2f 9c 3c f4 6e 86 3b
       0.023798702 0.022378888 0.019065456 0.004102582
000140 b3 87 b7 3d 71 13 59 3d 99 ba 0f 3d 84 5a ba bc
       0.089614294 0.052997056 0.035090063 -0.02274824
000150 63 6f 81 bd 9c 31 63 bd 82 2a 3e bc b0 5f 00 3b
       -0.063200735 -0.055467233 -0.011606814 0.0019588284
000160 ea 51 9a 3d 25 71 82 bc 8e 22 5a 3d ee 05 e3 ba
       0.07535155 -0.015923092 0.05325561 -0.0017320493
000170 d6 4a 87 bc 88 73 a4 3d 08 9d bc bd f0 59 a7 3b
       -0.016515177 0.08029848 -0.09209639 0.005107157
000180 a9 8a 73 3c 4c 97 03 3d 26 a1 04 3c 70 21 81 bd
       0.014864602 0.03212671 0.008095061 -0.06305206
000190 52 c5 1c 3d 94 75 aa bd e4 d2 0c ba 76 a9 78 3d
       0.038274117 -0.083232075 -0.00053720013 0.060708486
0001a0 56 9f ab 3c a7 df 50 3d 1e 46 2f bd 1d c9 8a bd
       0.02095 0.05099454 -0.04279148 -0.067766406
0001b0 d3 3e 6c bd f6 bb 96 3d ae 3c 06 3d d6 35 fb 3c
       -0.0576771 0.073600695 0.032772712 0.03066532
0001c0 1a 81 99 3c 2d 9a 8a 3c e0 27 c2 3c 6a ff 82 bd
       0.018738318 0.01691922 0.023700655 -0.063963726
0001d0 40 4e 93 bc fb d1 31 3c f4 1f a5 3a 89 86 93 ba
       -0.017981648 0.010853286 0.0012598024 -0.0011255305
0001e0 b7 bf 5c bd 88 6c b8 bd c2 d1 72 3c e4 19 55 bd
       -0.05389377 -0.09005076 0.014820518 -0.052026644
0001f0 6f 32 85 bd 96 cd a8 bd 61 a4 1a bd 26 7b 57 3d
       -0.0650376 -0.082423374 -0.03775442 0.052607678
000200 cf b2 56 3c ed ab f3 3a 57 e2 1a bd 94 5b d4 bc
       0.013104155 0.0018590667 -0.03781351 -0.025922574
000210 cc 5a a5 3d ac 2f 38 3d d6 07 73 3c 9d e7 4b 3d
       0.08073959 0.04496734 0.014833411 0.04978143
000220 8d 11 a2 3d 17 71 b4 3d e2 c7 e6 3a 29 33 b3 3d
       0.07913504 0.08810633 0.0017607177 0.087499924
000230 bd 64 42 bd b3 92 22 3c ba 37 85 bd df 49 e2 3c
       -0.047459353 0.009922671 -0.065047696 0.027623115
000240 8f e7 8d bd 44 ad d1 bc 58 3c c2 3c 0c 90 f7 bc
       -0.06928932 -0.025595315 0.023710415 -0.030220054
000250 dc 55 a4 bc b8 93 2a bd 7e f7 75 bb 2d 0f 67 bb
       -0.020060472 -0.04164478 -0.003753155 -0.0035256848
000260 8e 02 88 3d 51 c6 3b 3d 7e aa 40 bb c7 c8 90 3c
       0.06641112 0.045843426 -0.0029398496 0.017673863
000270 f5 bd 27 bd a1 d5 92 3d f5 b7 86 bb 98 ca 62 bc
       -0.04095264 0.07169653 -0.004111285 -0.013842247
000280 bc 49 8f bc c0 39 41 3d 74 bb 9a bc 56 53 94 bc
       -0.017491214 0.047174215 -0.018888213 -0.018106144
000290 78 cc 02 bc 28 14 a7 3d 74 47 6f bd 8c 12 b3 3c
       -0.007983319 0.081581414 -0.058417752 0.02185943
0002a0 cd 90 6d bd 37 e4 c9 ba 0d 14 6e bd f3 ee b2 bd
       -0.05799942 -0.0015403096 -0.05812459 -0.08736982
0002b0 b2 ba f0 3c 0c 52 15 3c 0b 2d d8 bc fa 3e 4b 3d
       0.029385898 0.0091138 -0.026388666 0.049620606
0002c0 09 29 90 bc 43 73 05 bd f8 76 55 bc 30 f7 8d 3d
       -0.017597692 -0.032580625 -0.013028853 0.06931913
0002d0 15 42 a1 bd e3 5d 88 3d d1 73 c6 bc 7a 7c 8d 3b
       -0.07873932 0.066585325 -0.024225147 0.0043178173
0002e0 20 fa c7 3c bc 45 28 3c 6a e7 7d 3c 2e 22 16 3c
       0.024411261 0.010270532 0.015497068 0.0091634225
0002f0 bf 34 b3 bd 17 64 a5 3d fc 2d f7 3c d4 56 0e b9
       -0.08750295 0.08075731 0.030173294 -0.00013574521
000300 8e 28 3f 3c bc 51 aa bd fd 34 04 bd 18 ca f9 3b
       0.011667384 -0.08316371 -0.032277096 0.0076229684
000310 ed 90 c5 bc 0d a7 a3 3c bd 31 7a 3c 2e 50 d0 3c
       -0.024116958 0.019977117 0.015270648 0.025428858
000320 27 31 36 bd 57 12 64 3d be 1a 5b bd 5b 48 9a bb
       -0.04448047 0.055681553 -0.0534923 -0.0047083325
000330 7e 41 72 3c d3 e9 5f bd 4d ce d1 bb 5c a9 b9 bd
       0.014786122 -0.05466635 -0.006402767 -0.09065506
000340 0f b1 b7 bd 24 91 90 3d c6 bf 05 bc ea c2 53 3d
       -0.08969318 0.070589334 -0.008163398 0.051699556
000350 d3 65 a3 bc 72 9e 86 bd a8 be 3e bd ad a6 03 bd
       -0.019946015 -0.0657319 -0.046568543 -0.032141376
000360 c8 3d f7 bc 08 20 00 3d da e6 d0 bc 4a 82 2f 3d
       -0.030180827 0.031280547 -0.025500704 0.042848863
000370 99 ad a2 bb 94 15 8d 3b a3 3a 65 3b 61 b3 8c 3d
       -0.004964542 0.004305551 0.0034977577 0.06870151
000380 fb 62 de bc 29 a5 1e 3b 51 1e 73 3c 75 4c b0 3d
       -0.027146807 0.002420733 0.014838771 0.08608333
000390 a0 4e b3 3c 08 60 9b 3d b7 4d 42 bd cc 1f 95 bb
       0.021888077 0.07586676 -0.047437396 -0.0045509096
0003a0 3b ea 0f bd c8 d7 71 bd ee 24 fb b9 42 73 11 bc
       -0.03513549 -0.059043676 -0.00047901965 -0.008877577
0003b0 33 4f 50 bc 82 d8 ce bc 2e b2 5a 3d d5 44 4d bd
       -0.012714195 -0.025249723 0.05339258 -0.05011447
0003c0 78 b4 60 3d cf 00 6e bd 7e fb 12 bd 87 09 13 3d
       0.05485961 -0.05810624 -0.035884373 0.035897758
0003d0 8a bd 72 bd 8b 6f 16 3d 07 ae a2 bd e0 22 8e 3d
       -0.05926279 0.03672747 -0.07943349 0.06940246
0003e0 ae b5 09 3d 3b f1 49 3c af aa 48 bc 36 10 97 bb
       0.03362053 0.01232558 -0.012247725 -0.004610087
0003f0 48 5b a8 bb 75 64 0f bd f2 2d 42 3c c6 e9 4e bd
       -0.0051378347 -0.035007913 0.0118517745 -0.050515912

fc2.bias f4 [128]
000000 a4 d8 3c 3d 2a 12 91 3d a8 db 39 bd 77 79 09 bd
       0.046105042 0.07083543 -0.045375496 -0.033563104
000010 e3 cf 45 3d f8 d2 53 bd 08 f1 28 3d 63 05 7f 3c
       0.04829396 -0.051714867 0.04124549 0.015565249
000020 3f 69 af 3d 33 86 9b 3d 06 cd 85 bd 2a 85 10 3d
       0.08564996 0.07593956 -0.06533246 0.035283245
000030 80 55 68 3d f9 4d 68 3d 5a dc 34 3c 7c eb c9 3c
       0.056722164 0.056714986 0.011038864 0.02464842
000040 f5 99 14 3d 1d ed f5 3c 84 46 bc 3c d8 b5 06 3d
       0.036279637 0.030020291 0.022982843 0.032888263
000050 69 26 81 3d 2e b9 a2 3d ef b8 92 bb 3d f8 76 3d
       0.06306154 0.079454765 -0.004477612 0.060295332
000060 ae f5 d1 bc 9b fa 2a bd e8 29 75 bc de 1e e7 bc
       -0.025629845 -0.041742902 -0.0149636045 -0.02821296
000070 ce 10 b1 3d e3 df 97 3c fd f5 53 3d 7f 6f be bc
       0.08645783 0.018539375 0.051748265 -0.023246525
000080 34 8d 26 bd 69 68 4a 3d c5 5a ad bb 00 71 33 bd
       -0.040662006 0.04941598 -0.0052903616 -0.043808937
000090 fe c3 82 3d 78 02 86 bc 60 40 40 3a 58 67 3d 3d
       0.06385039 -0.016358599 0.00073338114 0.046241134
0000a0 ae e0 16 39 54 1e 47 3d 15 61 85 3c a7 00 14 3d
       0.00014388814 0.048612908 0.016281644 0.036133435
0000b0 a4 10 79 bd 20 8c 16 bd 98 36 18 3d bb e4 4d 3d
       -0.060806885 -0.036754727 0.03716144 0.050266962
0000c0 4c bd 8a 3c 0f 38 03 3d 32 e2 94 bc df 75 8d 3d
       0.016935967 0.032035884 -0.018174265 0.06907248
0000d0 06 f9 26 3d 3b eb 9a bc 0c 1d 2f bc 76 c2 0b 3d
       0.04076483 -0.018910995 -0.010688078 0.034121
0000e0 fc 73 9d 3d 95 33 79 3d 47 d6 0b bd ae b4 70 bd
       0.07688138 0.060840208 -0.034139898 -0.05876606
0000f0 2a 83 b4 3d 5e bf 9e bc 6e ad e2 3c 92 03 48 3d
       0.0881408 -0.01937836 0.027670588 0.04883153
000100 e9 1b 00 3c 7e 04 80 3c a8 b0 a9 3a be f8 66 3b
       0.007819154 0.015627142 0.0012946324 0.0035243477
000110 4c 1f b2 3d 2c f3 03 bd c8 fe 72 3d 19 28 ac 3d
       0.08697376 -0.03221433 0.05932501 0.084060855
000120 7b f9 29 bd 93 67 0d bd b4 21 31 bd 1b 13 7b bd
       -0.04149769 -0.034522604 -0.043245032 -0.061297517
000130 4d 3a 74 bd 44 ea e3 3c e8 4c 49 3d f9 e2 6e bc
       -0.059625912 0.027821667 0.04914561 -0.014580482
000140 e3 17 83 3d 1c 1f 3a 3d d9 4d 6e 3d 77 df 6b 3d
       0.064010404 0.045439824 0.05817971 0.05758616
000150 a7 78 b3 3c 5f e4 96 3d 30 1c 9a bc 15 a3 ca 3b
       0.021908117 0.07367777 -0.018812269 0.0061839917
000160 1f 72 7e bd 8c cc de 3c 38 9d 4b 3c 26 00 62 3d
       -0.062120553 0.027197145 0.012427621 0.055175923
000170 45 c5 64 bb 57 5c bc 3c 1d 29 80 3d ce ee 44 3b
       -0.003490762 0.02299325 0.06257842 0.0030049565
000180 15 34 87 bd 15 31 17 bd f0 52 e9 bc 7f 16 57 3d
       -0.06601731 -0.036912043 -0.02848193 0.05251169
000190 83 4e 80 3d 21 5b 5c bc 28 b5 37 3c 4b f3 7b bd
       0.06264975 -0.013449461 0.011212625 -0.06151132
0001a0 87 9e 65 3c 7c f3 64 3d e0 e1 3c 3d 16 f4 28 3d
       0.014014847 0.055896267 0.04611385 0.041248403
0001b0 5c 95 c0 3c f4 24 ca bc 95 6a f9 bc 2c c9 b1 3d
       0.02350872 -0.024675824 -0.03044633 0.086809486
0001c0 bd c3 76 3d d9 3f 0a bd c1 16 ba 3d 96 c8 2e bd
       0.060245264 -0.033752296 0.09086371 -0.042671762
0001d0 6b 95 fd 3c a0 04 80 bd 40 fc 20 bd 51 b0 04 bd
       0.030955037 -0.06250882 -0.039303064 -0.03239471
0001e0 a4 4d 8f 3d c4 6e 2a bd a9 2c 0a 3c a2 52 6d 3d
       0.06997231 -0.04160954 0.008433499 0.057940133
0001f0 35 f5 b8 3d 75 4f ba 3c 05 26 90 3d 83 c1 8f bd
       0.090311445 0.022742966 0.07038502 -0.07019331

fc3.weight f4 [3, 128]
000000 0d e0 9d 3c 8f 38 95 bd 0e f8 20 3d b0 ad 88 3a
       0.019271875 -0.07286178 0.039299063 0.001042774
000010 67 ec dd 3d 96 9b 8a bd 93 4e a8 bd 7c 2d b2 3d
       0.10836106 -0.06767957 -0.08218112 0.08700082
000020 6a 9f 1e bd 8b 4a a7 3d 45 65 65 3c 9c e1 c3 3d
       -0.038726248 0.08168515 0.014001195 0.09564516
000030 b1 bf d4 3d e1 fe eb bb cb 4e 93 bd ee f7 b7 3d
       0.10388125 -0.007202015 -0.07192763 0.08982836
000040 77 3c d7 3d 42 ad d2 3c 9d af 2b 3d da 44 a5 bd
       0.1050958 0.025717381 0.041915525 -0.08069773
000050 93 f8 e3 3d 3a 92 f0 3d 3b bc 55 bd d0 2c e2 3d
       0.11131396 0.117466405 -0.052181464 0.110437036
000060 a9 bc 14 bd 05 8c 84 3d f8 da 0f 3d 0a 55 07 bd
       -0.036312733 0.06472019 0.035120934 -0.033040084
000070 70 79 d2 bd b2 44 1a 3d c7 79 33 bd 9b c5 80 3b
       -0.102770686 0.03766317 -0.043817308 0.0039298064
000080 bc 5b 9e bd f9 79 c3 bd 20 3a 1c 3c 3f 55 9f 3d
       -0.07732341 -0.09544749 0.009535342 0.07779931
000090 66 07 a7 3c 3e 13 a2 bd 78 ce b7 bc 58 1f 58 3d
       0.02038927 -0.079138264 -0.02243732 0.052764267
0000a0 0c 9e f2 3b a7 a5 93 bb 49 fb 2f 3d 4b 3d db 3c
       0.0074040946 -0.0045058313 0.042964254 0.026762625
0000b0 7a 5a 32 3d fd 52 17 3d 15 ad c5 bd 99 4c 21 bd
       0.043543316 0.03694438 -0.096521534 -0.03937969
0000c0 b6 4a c0 3d c3 4a ee bd c7 ec d7 3c 1b bd 8a 3d
       0.0938925 -0.116353534 0.026358021 0.0677435
0000d0 56 08 cb 3d 53 3e a3 3b 36 cb 5c bd d6 69 d9 bd
       0.09913699 0.004981795 -0.053904735 -0.1061589
0000e0 bf 78 83 3c ec ad d5 bd 92 7b a3 bd fb 37 93 bb
       0.016048787 -0.104335636 -0.079825535 -0.0044927574
0000f0 0c 0c 50 bb 15 51 9a 3d aa a0 df bb 67 b3 76 3d
       -0.0031745462 0.075349964 -0.0068245726 0.060229685
000100 25 1b 98 3a cd c9 28 bd ee 54 1c bd 59 a0 ed bd
       0.0011604769 -0.041208077 -0.038166933 -0.116028495
000110 98 1f b1 3d 34 e3 0a 3d 5d 7f b5 bd 83 c2 9d 3d
       0.08648604 0.033908084 -0.08862183 0.07703116
000120 1e 08 b7 3c 75 68 81 bd 00 2e 32 bc a0 e5 47 3c
       0.022342738 -0.06318752 -0.010875225 0.012200743
000130 52 6a a0 3d d4 02 12 bd b1 41 db 3d e1 4e b4 bd
       0.07832779 -0.03564723 0.10705889 -0.088041075
000140 68 e7 7b bd 32 2e 3a bc d6 77 b2 bd bb f7 08 bb
       -0.061499983 -0.011363553 -0.08714263 -0.0020899612
000150 41 7b bd bc d3 7d 9f 3c 45 59 43 3c f5 a5 8f 3c
       -0.023130061 0.019469177 0.011923139 0.01753519
000160 eb 1a e9 3c 93 00 9f bc 97 e2 9d bd 73 5c 7b bd
       0.028455218 -0.019409453 -0.07709234 -0.061367463
000170 04 8e ff bc db 5c ea bd fa c9 63 bd f7 03 c1 3d
       -0.031195648 -0.11443492 -0.05561254 0.09424584
000180 d8 68 0e bd dd 2c e4 bc f2 fc 60 3d a7 f3 84 3d
       -0.034767956 -0.027853424 0.054928727 0.064917855
000190 7d b0 e7 bd 18 b6 a9 bd 44 3e ae bd 05 90 7d bd
       -0.11312959 -0.08286685 -0.0850797 -0.061904926
0001a0 2f 7b b3 bd 0c 64 79 bd 5d b9 94 3d 16 73 57 3d
       -0.0876373 -0.060886428 0.07261918 0.05259999
0001b0 70 4d e7 bd 3a 6f 6d bd 9e e7 c7 3c 9a 33 f6 bd
       -0.11294067 -0.057967402 0.024402436 -0.12021561
0001c0 cc 26 80 3d 24 43 f8 3c 17 bb b7 3c 90 24 e0 3b
       0.062574 0.030305453 0.022428079 0.006840296
0001d0 ff 85 b1 bd a7 de f3 3b 97 76 9e bd 6a 67 9f 3c
       -0.08668136 0.0074423137 -0.07737463 0.019458491
0001e0 56 af d7 bd b7 3b 1d 3d a8 0b 61 bd 73 af 2b bd
       -0.105314896 0.038387027 -0.054942757 -0.04191537
0001f0 93 57 95 bd 80 3e 3e bd 2f 6e ad 3d be 46 6e 3c
       -0.07292094 -0.046446323 0.084682815 0.014543233
000200 12 37 5b bd cf 25 d6 3d fb 4a b1 3d c6 7c 2c 3d
       -0.053519316 0.1045643 0.086568795 0.04211118
000210 af 5a 3e 3d c7 0e 89 bd 28 de b3 3d 3e c8 7d bd
       0.0464732 -0.06692272 0.08782607 -0.061958544
000220 e6 2c ec bd 3b 91 11 3d 89 09 fa bc be c6 ac 3b
       -0.11532001 0.035538893 -0.030522125 0.0052727154
000230 ca 1b 2c bd 35 e3 ce 3d 96 73 b2 bb b7 85 23 bc
       -0.04201869 0.1010193 -0.005445908 -0.009980611
000240 e2 ee 6d bc 82 3b ea bd 1b 88 c6 3d ba 02 78 3d
       -0.014522286 -0.114371315 0.09693929 0.060549475
000250 7c ff 8f 3d 6f 33 d4 bc f7 35 c5 3d f0 28 d6 3d
       0.07031152 -0.025903432 0.096294336 0.10457027
000260 5c 71 d3 3b f9 71 bc bd 9e 78 29 bd af 68 30 bd
       0.0064527225 -0.09201426 -0.041374795 -0.043068584
000270 32 23 41 bd 9a 84 3d bd 38 56 aa 3d 08 d7 91 3d
       -0.047152705 -0.046269037 0.08317226 0.07121092
000280 c4 0b 71 bb 10 fe 58 3d fe 80 17 bc b6 a3 5b 3d
       -0.0036780694 0.052976668 -0.009247063 0.053622924
000290 4e ad 5c 3d 8a f7 ce bd 61 89 00 bd 5a aa 82 bd
       0.053876214 -0.10105808 -0.031381015 -0.06380148
0002a0 b4 58 9f bb 3e d8 8d 3d d5 f8 4a 3d c3 40 c8 3b
       -0.004862869 0.069260105 0.04955371 0.006111236
0002b0 6e be aa bd 47 f8 08 3d 23 61 cd 3c fb 75 a6 3d
       -0.08337103 0.0334399 0.025070732 0.08127972
0002c0 63 e5 12 bd 45 c2 c6 3b 3b cb 16 3d 85 b4 d8 bd
       -0.03586329 0.006065639 0.03681491 -0.10581306
0002d0 63 38 50 bd ea 01 1c 3d 6d fe b7 bd ab 4f 89 3d
       -0.050835025 0.038087763 -0.08984075 0.067046486
0002e0 b5 be ea bd 57 97 1e ba 1a 80 17 bd a2 bb b2 bb
       -0.11462156 -0.0006049773 -0.0369874 -0.0054544965
0002f0 7e 35 ed bd d2 5f a3 3d 18 60 eb 3c 20 a3 94 bb
       -0.115824685 0.07977261 0.028732345 -0.0045360476
000300 e5 dc cf 3d 86 78 f5 bc 10 3d a1 3d 24 08 7c 3c
       0.10149554 -0.029964697 0.07872975 0.0153828
000310 db e4 d3 bd a8 43 e8 bc 62 ad 66 3d 22 12 ae bd
       -0.10346385 -0.028352574 0.056317694 -0.08499552
000320 20 80 e4 3b cc 8c 22 bd 07 ae 80 3d a1 a6 a4 3d
       0.0069732815 -0.039685056 0.06283193 0.080395944
000330 4f 2f 44 bd e9 59 97 3d 32 ec b6 bc 8a f7 7b bd
       -0.04789668 0.07390196 -0.022329424 -0.06151537
000340 b1 0d 0e bc 24 60 ce bd b3 36 dc bd 81 d2 89 bd
       -0.0086702565 -0.10076931 -0.107526205 -0.067296036
000350 ee 8f 95 3d 0d b7 ac bd 58 cb 93 3d 13 36 31 bd
       0.07302843 -0.08433352 0.07216519 -0.04326446
000360 28 01 05 bd 72 b7 80 bd 01 77 d1 3d 44 e5 c8 bd
       -0.032471806 -0.062849894 0.10227776 -0.09809354
000370 bd fb a6 3c dc c0 a5 bd 8e 62 95 3d f9 51 8c bc
       0.02038371 -0.08093426 0.072941884 -0.017128931
000380 6d 61 44 bb 67 c3 f9 3c 18 9d 91 bc 9e 22 6e bd
       -0.0029965297 0.030488683 -0.017775103 -0.058138482
000390 bf 65 b4 3d ef 08 c6 bc e6 c5 72 3d 77 a8 95 ba
       0.08808469 -0.024174182 0.059270762 -0.0011418004
0003a0 54 f2 14 3d 58 3e eb bd 1a 82 e9 3d 4d fd 65 bc
       0.036363915 -0.114865005 0.11401768 -0.014037442
0003b0 56 8a 95 3c 77 29 90 3d 98 04 91 3d 78 2f ce bd
       0.01825444 0.07039159 0.07080954 -0.10067648
0003c0 32 8e a7 bd 91 8d 61 3b 6b 95 b2 bd 3b 7d b1 3d
       -0.081814185 0.0034416656 -0.087199055 0.08666464
0003d0 fd ce c8 3c a6 b9 25 3c 18 a6 5d bc a4 29 88 3d
       0.024512762 0.010115063 -0.013528369 0.06648567
0003e0 64 e2 e0 3d dc 2c 89 bd 83 c4 39 bd 88 19 76 3d
       0.109806806 -0.06698009 -0.045353424 0.060082942
0003f0 71 4e 1a 3b 69 ef 91 bd fd 0b db bd 50 77 3e bd
       0.002354529 -0.07125742 -0.10695646 -0.046500504

fc3.bias f4 [3]
000000 4e 43 88 bd be a5 e3 3c 55 80 5e bd
       -0.06653462 0.027788993 -0.054321606
